checkpoint_noise_decay.pt (torch_old, 323056 bytes, 15 tensors)

fc1.weight f4 [256, 24]
00000000: 883f bd3a c0cd 5339 c9bd 1bbb ac5d 903a
00000010: 0494 10ba d80a ae39 1040 ee3a 79db 39bb
00000020: 0ab4 41bb 005a c036 0072 93b8 ac53 b73a
00000030: 60a6 b638 7485 18ba c04b 38b8 bc44 063b
00000040: 491e 24bb 2068 743a c99e eaba bc57 e13a
00000050: 80bf 0438 9ff1 35bb 20fb 993a 58b6 c5ba
00000060: f345 72bd 6889 3bbe ac81 b6bb 97f5 a53c
00000070: 9f6a e8bc ab78 233d 5480 f6bb cf70 8b3c
00000080: a3fd 3abd a6e0 11be 525e 3a3c e00a 6e3c
00000090: d5cc 77bd aeb9 8b3c 14b4 603c b4ff 483c
000000a0: e627 e7bc 987b d4bd 6d2b a1bc 0dec 2a3a
000000b0: cdbf b6bd caef 9c3c 5dd5 b6bc 2385 8a3a
000000c0: 8063 913d 58b9 cbbd 78a7 733d 7078 19bd
000000d0: 145d 94bc 2201 75bd c2e8 713d 0423 23bd
000000e0: 366b 8c3d 28a2 e3bd 73f1 9c3c 5fd2 9cbd
000000f0: 67a6 68bd d771 aabd db93 a93c 6310 99bd
00000100: ec57 903d 299e 19be 523b 9d3d 0035 9dbd
00000110: f89a e4bc 6011 29bd da40 a33d 24f0 91bd
00000120: b26b f9bc 6688 2bbd b972 56bb f168 f73c
00000130: 39a4 053e df60 2d3d 036f 51bb 69ec 083d
00000140: 2bbe 26bd 0753 26bd 4b2e ce3c fa18 42bd
00000150: 0e72 403d 1371 ac3b 9904 c13c 16b3 48bd
00000160: 19ec a1bd 9ef4 c1bd 6389 f6bb 4368 833c
00000170: 628b 5cbd 8ac7 553d 13bf a3bb dc59 493c
00000180: 239e 06bb 880b 2abb 69f8 f63a f5d0 d93a
00000190: ac13 04bb d499 27bb 768e 8339 4a76 06bb
000001a0: e4cc b03a 29e1 1fbb ff0e 903a 428b 9c3a
000001b0: 64c0 fab9 937d 033a 5873 b1ba 860b 20bb
000001c0: 7b7a 963a d878 08ba 99d8 ef38 41d3 b3b8
000001d0: bec7 1ebb 1117 55b9 1331 ab3a a1fd afb8
000001e0: e739 d1bc 6a80 2fbc e5c4 bebc 202a 56b7
000001f0: 17af d33d fab1 e53c 47e6 c9bc ca32 473b
00000200: 8b88 1abd 03ad 67bc 9662 683c 4f3c 71bc
00000210: bb9f 093a 8d93 10bd 3292 753c 9e7a 3fbc
00000220: a47c 66bd aa9e 53bd 9ef8 8d3c dcf0 94bd
00000230: abdd 2cbe bc62 9abd 2790 963c 9cc6 97bd
00000240: 52fe 09bc fe55 203d 71ba 69bc 9384 fbbb
00000250: 29dc ef3b 1917 943d dd52 60bc af73 babb
00000260: c9ec babc 0af7 cb3b c341 013d 43e5 22bd
00000270: 0efb a8bc ce4c 433c 32df d53c e55c 2dbd
00000280: 3480 4dbd 566d 85bd 0c8d 053c d9ee d1bd
00000290: 7b03 eebd d72c 1dbc 4c79 2c3c c59b cfbd
000002a0: 790c 1b3d 4de7 4b3d b473 733a 8e9d 50b9
000002b0: 9c21 a5bd 14ea 27bd 6018 0cbb cb2c 2c3b
000002c0: e7f6 2f3c bffb c13c ab79 f5ba 25f7 1dbd
000002d0: f9be 38bd bee5 07bc 5afc 08bb d340 22bd
000002e0: 1a08 80bd e52c fabd ace4 6e3d d14e 1abe
000002f0: 14d1 c6bc d89c e83d ea52 643d 2526 1dbe
00000300: eb6e c0bd 7c0c 24bd 583a ec39 25dd ecbc
00000310: 4f22 7bbd 1c93 47bd a575 fdb9 9f07 c0bc
00000320: 4a71 ecbd e17d 8abd 947c 1fbd ee80 363c
00000330: dbd0 03be aa31 61bd 7c2b 20bd bac4 4b3c
00000340: a288 f6bd cc0f e3bd 6e80 27bd d214 f4bc
00000350: 705e 41be 80b0 7bbd 62d4 1bbd 3838 fbbc
00000360: 6b73 02bc 746a 6fbe 2ad2 163c af17 7c3b
00000370: ed4f bcbd 54fe b5bb 4a52 0b3c 1c45 333b
00000380: b6f1 35bc 3e33 6ebe cf36 093c 7691 78bc
00000390: 9484 cbbd 78ff 36bd 01c8 083c b26b 25bc
000003a0: 22b7 26bd 132b 8cbe 2161 8fba 6dc9 ad3b
000003b0: 58c1 32be 33ae 4fbd 0e54 3bbb f4a6 cf3b
000003c0: 22ec 283b ce3d 1f3b a00d 0c3b 80c5 6e39
000003d0: 00bc 3dbb 565f e2ba c0d5 0b3a a0ed f238
000003e0: 1bf0 acba 1c4f 24bb 04dc 1fba 020e c2ba
000003f0: 74b1 283b c464 d33a 78ea c7b9 e074 7539
0.001443849 0.00020199176 -0.0023764244 0.0011014245 -0.000551522 0.00033195945 0.0018177051 -0.0028359576
-0.0029556775 5.7325233e-06 -7.0307404e-05 0.0013986728 8.709426e-05 -0.0005818226 -4.3939566e-05 0.0020487746
-0.0025042465 0.0009323377 -0.0017900105 0.0017192285 3.16496e-05 -0.0027762426 0.0011747815 -0.001508425
-0.05914874 -0.18314135 -0.0055696573 0.020258708 -0.028371153 0.03991 -0.007522622 0.017021565
-0.045652043 -0.14245853 0.011375027 0.01452896 -0.060498077 0.017056312 0.013714809 0.012267996
-0.028217267 -0.10375136 -0.019674027 0.00065201597 -0.08923302 0.01915731 -0.022318536 0.0010568242
0.07099056 -0.09947461 0.059485883 -0.037468374 -0.01811079 -0.059815533 0.059059866 -0.039828315
0.06856386 -0.11114913 0.0191581 -0.076573126 -0.05679932 -0.083224945 0.020700386 -0.07473829
0.0704802 -0.1500174 0.0767733 -0.076761246 -0.027905926 -0.041276336 0.07971354 -0.07125881
-0.030446861 -0.041878127 -0.0032722189 0.030201407 0.13050927 0.04232871 -0.0031957037 0.033428583
-0.040708702 -0.040606525 0.025168559 -0.0473871 0.04698377 0.005262503 0.023561763 -0.048998915
-0.0790636 -0.09470485 -0.007523702 0.016040927 -0.053843863 0.05219225 -0.004997143 0.012289491
-0.0020541034 -0.0025946815 0.0018842343 0.001661806 -0.0020153327 -0.0025573866 0.0002509241 -0.0020517283
0.0013488797 -0.002439568 0.0010990797 0.0011943358 -0.00047827058 0.00050159654 -0.0013538403 -0.002442093
0.0011480594 -0.00052059954 0.000114367525 -8.574734e-05 -0.0024227942 -0.00020321856 0.001306089 -8.391892e-05
-0.025540305 -0.010711769 -0.023287246 -1.2765202e-05 0.1033613 0.028038967 -0.024645938 0.0030395263
-0.037727874 -0.01414037 0.014183661 -0.014723851 0.0005249937 -0.035296965 0.014988469 -0.011686949
-0.05627121 -0.051664986 0.017330464 -0.07272503 -0.16881435 -0.07538363 0.018379284 -0.074109286
-0.008422451 0.03914451 -0.0142656425 -0.007675716 0.0073199463 0.07230968 -0.013691631 -0.00569006
-0.022817986 0.0062245177 0.031556856 -0.039769422 -0.020627525 0.011920167 0.026107404 -0.04232492
-0.050171092 -0.06514995 0.008151304 -0.10250635 -0.116217576 -0.00959321 0.010526966 -0.101371326
0.03785369 0.049781132 0.00092869555 -0.0001989512 -0.08063051 -0.04099472 -0.0021376833 0.0026271816
0.010740018 0.023679612 -0.0018728276 -0.038565774 -0.045104 -0.008294521 -0.0020902366 -0.039612602
-0.06251545 -0.12215594 0.058323547 -0.15069129 -0.024269618 0.113580406 0.055743136 -0.15346582
-0.09396156 -0.04005097 0.00045056897 -0.028914044 -0.061312016 -0.04872428 -0.00048343572 -0.023441134
-0.11545046 -0.06762291 -0.038937166 0.011139138 -0.12872641 -0.054979004 -0.03910397 0.01243704
-0.120377794 -0.110869974 -0.040893964 -0.029795084 -0.18883681 -0.06144762 -0.03804434 -0.030666456
-0.007962088 -0.23380452 0.00920538 0.0038466265 -0.09194932 -0.005554 0.008503506 0.0027354425
-0.011104992 -0.23261735 0.008374884 -0.015171399 -0.09937397 -0.044677228 0.008348466 -0.010096477
-0.040701993 -0.27376613 -0.0010938981 0.005303553 -0.17456567 -0.05070324 -0.0028584036 0.006337041
0.0025775512 0.0024298313 0.0021370426 0.00022771023 -0.0028951168 -0.0017270844 0.00053342804 0.0001158372
-0.0013194116 -0.0025071567 -0.00060981535 -0.00148052 0.0025740536 0.0016128053 -0.0003813093 0.0002340856

fc1.bias f4 [256]
00000000: 916c 25be dad3 083e eba9 ae3c 68dd 563e
00000010: f7bf 4fbe baeb b039 9bd2 d23d 5335 db3d
00000020: 1c06 fdbc e885 483e d73f 22be 746a 773e
00000030: 0273 af3d 2efe 1c3e 86e6 163e ae7f ac3d
00000040: ac35 9b3d bb83 21bc 4cba 1cbe 4a1c 0c3e
00000050: 5470 633e d2e7 4b3e 93a3 033d f51b 3bbe
00000060: e7cc f2bb 767c 213e 35a6 53bd b9cc 303e
00000070: 1ce3 c3bc a890 473d 19c1 5b3e bfec f03d
00000080: c848 26be eb98 053e 350f 2a3e b05d 0c3e
00000090: e794 c4bd 1348 6b3d f5fc 55be 45b2 06bd
000000a0: 4326 11be a12a 1d3e d73d 3c3e cfb9 6ebe
000000b0: 7f51 c3bd 7ed1 ffbc 4936 38be 4e81 683e
000000c0: 3575 21be ce8b 813c cb9e 35be 8f19 173e
000000d0: 38db 07bd 7fcd 0cbe c06a 5f3e 1e2a b33d
000000e0: ad96 553d 27d0 793e d299 cd3c 7d17 963d
000000f0: 0200 44be 5f4f c63d 4585 a4bd 7d5b e63d
00000100: dca5 7fbd c8cb 28be 9e80 06be c95e cabd
00000110: edaf f8bd d0a2 e4bd aeea b43c 85fc 3ebe
00000120: c37b 323e c649 1d3e 0ce8 4fbe 87eb 50be
00000130: 8f99 d2bd 2f61 e63d 5ea4 ed3d 1bdb ff3d
00000140: fc9d e93d c648 43be ca7d 313d 08cd a93d
00000150: bfbd 79be cdbc c2bc 93b9 293e 8c61 063e
00000160: 0a11 dcbd f135 2c3d a60b 903d 1678 b43d
00000170: dcd9 a93d 27a4 33be a520 793e dee1 3cbe
00000180: 3ef1 0abe 0f82 7d3d fb42 00be d502 1abe
00000190: 8635 4ebe 23da 1b3e 3c90 cbbc 0944 183e
000001a0: bc5d a73d bf87 dabc 95e7 b93c afd4 3d3e
000001b0: 58d4 ccbd b9a9 c0bd ae30 e23d ee8c 03be
000001c0: 3e27 0b3e 359f 25be deb3 103e 9436 813d
000001d0: d217 26be 0f1f 49be 4862 173e 7ef2 513c
000001e0: 01e7 eb3d 414c 023e 9154 b73d 5765 a03d
000001f0: 58ff b9bb 9ef9 f43d c632 573e ba24 0a3d
00000200: 1dcc 06be 9b28 763e dbee 7f3e 1f82 373e
00000210: c555 413c bce8 b33c 1b13 743d 22be 21be
00000220: 59fd 4ebe 1f1b 283d e70f aa3d 3800 1d3e
00000230: dbdd d23d a9c1 013e caff 183e b26f 33bd
00000240: 3185 2b3e 17c1 803d e5f0 1bbd c425 19be
00000250: cf68 49be 2a83 d6bd 60da 603d e029 923e
00000260: 3809 9abc ade7 563d cb52 cdbd 28fc 663d
00000270: 80c0 b73d 2e5c 9f3c bcb5 2b3d 9df3 f43b
00000280: ba5f 053e 0592 02be 2918 ca3d 9960 bf3d
00000290: 7aa4 bbbd 1858 4e3e fbb9 e4bd a6b3 2c3e
000002a0: 2fba a33d 28e3 e23d 2bcc 95bc f7b7 7fbd
000002b0: e9f6 15be 863b 80be 80cf 1d3e 1fa4 3f3e
000002c0: 21a3 1d3e 32fb 55be 9e48 233d 483f febc
000002d0: 4fb1 34be aa63 51be 5810 383e 541a 803d
000002e0: 78e2 21be 918b 1bbe 71e9 3f3e be73 13be
000002f0: 4b87 85bd 1160 4c3e 057e 823e de0b 5a3e
00000300: 9272 313e f980 ee3d 656f 323e 809a 113e
00000310: 6364 223e 5bba bd3d 65d7 2f3d 0c51 ca3d
00000320: 3e95 193e 1561 db3d eb3c 30be 43b7 973c
00000330: 578c 83bd b1df 29be 3037 b03d 200c 38bb
00000340: 8943 40be 4c67 6ebe 8a07 f73d 96ab d7bd
00000350: da57 a43d 8d6b f93d 6780 24be d04d 8abd
00000360: 60e7 5cbe 647f 09be 77ae 43be 3b5a 39be
00000370: af9b 9ebd 97bc 4a3e 5918 583e ca92 593d
00000380: 61ce 543e d2a0 453e 5f46 abbd 164a 62bd
00000390: a589 983d 33ef 7fbe f74b 6e3c 516d 013e
000003a0: 67bb 2bbd 4e91 5abc 7172 38be dc35 753e
000003b0: ab1d 133e 2ac0 9dbd aabf 243e ddf4 05be
000003c0: da55 633e 028b cebd 38ff 2f3e debf 003e
000003d0: b472 0e3e d45a b73d bf7f c8bd 869e ce3d
000003e0: 0ab0 133e b613 263d f07b 1d3d 8121 d53b
000003f0: 35dd cabd 2e6e 10be a5e8 9e3c 1a2d 4e3e
-0.16154696 0.13362065 0.021321258 0.20982897 -0.20288073 0.00033744966 0.10294076 0.1070353
-0.030886702 0.19582331 -0.15844665 0.24161702 0.08566858 0.15331337 0.14736375 0.084227905
0.075785965 -0.009858067 -0.15305442 0.13682666 0.22210819 0.19912651 0.03213842 -0.18272384
-0.00740968 0.15770134 -0.05167218 0.17265595 -0.023912005 0.04872194 0.2146038 0.11763906
-0.16238701 0.13046615 0.16607364 0.13707614 -0.09598713 0.057441782 -0.20897277 -0.032884855
-0.14174752 0.15348293 0.18382965 -0.23313068 -0.095370285 -0.031227823 -0.17989458 0.22705576
-0.15767367 0.015813734 -0.17736356 0.14755844 -0.033168048 -0.13750266 0.21818066 0.087482676
0.05214565 0.2439581 0.025097761 0.07328699 -0.19140628 0.096831076 -0.08033232 0.11247919
-0.062414035 -0.16483986 -0.13135001 -0.0988136 -0.1214293 -0.111638665 0.02208456 -0.18651016
0.17430024 0.15360174 -0.20303363 -0.20402347 -0.10283195 0.11249005 0.11603616 0.12492963
0.11407086 -0.1907073 0.043332852 0.0829106 -0.24388789 -0.023771668 0.16574697 0.13123149
-0.107454374 0.04204363 0.07033472 0.08811967 0.082935065 -0.17543088 0.24328859 -0.18445536
-0.13568589 0.06189161 -0.12525551 -0.15040143 -0.20137605 0.15219931 -0.02484905 0.14869703
0.08172175 -0.026676057 0.022693435 0.18538164 -0.10001439 -0.09407372 0.11044441 -0.12846729
0.13589188 -0.16174014 0.14131114 0.06309238 -0.16220024 -0.19640754 0.14783585 0.012814162
0.1151867 0.12724401 0.08951677 0.07831829 -0.0056761913 0.11961673 0.21015462 0.03372643
-0.131638 0.24038927 0.2499346 0.17920731 0.011800234 0.021961562 0.059588533 -0.15795186
-0.20213832 0.04104149 0.083038144 0.15332115 0.10296222 0.12671532 0.14941326 -0.043807693
0.16750027 0.06286829 -0.03807153 -0.14955813 -0.19668888 -0.10474236 0.05489576 0.28547573
-0.018803224 0.052467037 -0.10025557 0.05639282 0.08972263 0.019453134 0.041921362 0.00747533
0.13024798 -0.12751015 0.098678894 0.093445964 -0.09162231 0.20150793 -0.111682855 0.16865405
0.07994496 0.11078483 -0.018285831 -0.062431302 -0.1464497 -0.25045413 0.15411186 0.18714951
0.1539426 -0.20896605 0.039864175 -0.031036034 -0.17645763 -0.20448175 0.17974985 0.06255022
-0.15809047 -0.15189959 0.18741395 -0.14399621 -0.06519946 0.19958521 0.2548677 0.2129359
0.17328861 0.11645693 0.17425306 0.14219093 0.15858607 0.0926406 0.042930026 0.0987874
0.14998338 0.10711876 -0.17210738 0.018520003 -0.06423252 -0.16589238 0.08604276 -0.00280834
-0.18775763 -0.23281592 0.12061985 -0.10530774 0.08024569 0.12178717 -0.16064607 -0.06753123
-0.21572638 -0.13427502 -0.19109522 -0.18100826 -0.07744538 0.19798504 0.21103038 0.053118505
0.20781852 0.1929963 -0.083630316 -0.055246435 0.074481286 -0.24993591 0.014544479 0.12639357
-0.041926768 -0.013340307 -0.18012406 0.23946327 0.14366786 -0.07702668 0.16088739 -0.13081689
0.22200719 -0.100851074 0.17187202 0.12573192 0.13910943 0.08952871 -0.09789991 0.1008883
0.14422622 0.04054614 0.038448274 0.006504238 -0.09905473 -0.1410453 0.019398043 0.20134392

fc2.weight f4 [128, 256]
00000000: 88f9 223b f031 16bb 0c65 c93a 0054 a637
00000010: 3002 aa3a 8490 3fbb dcd3 4bba 0020 2cb5
00000020: 58e6 dc3a f0c5 bbb9 605b abb8 0054 e9b8
00000030: 4032 13ba 8a7e 27bb 20fb fd3a a4ff 24bb
00000040: faf1 41bb be37 3abb 3ca1 5fba 6696 1cbb
00000050: a370 36bb 38fc 003b 06d8 8dba 9fc5 b6ba
00000060: 2c3f c2ba acd7 873a 18f0 a239 9892 ee3a
00000070: b88e fb39 00a8 b1b5 30f6 8e3a a85e e93a
00000080: 272f 41bb c2e1 2fbb 00ba 15b8 8bb9 90ba
00000090: 93ee 8dba 78ad cab9 b073 4039 6cb9 3e3b
000000a0: 70cd 773a 60ef 96ba e050 d138 605c d43a
000000b0: 3c92 40bb c804 ecba 566e 2ebb dcc4 8aba
000000c0: bae9 14bb dc7c c13a ac1d 353a 0c63 1cba
000000d0: 8037 d13a 5f8f 01bb 437b 14bb 840e 273b
000000e0: c6eb 433b c108 ecba e88a 8b39 c036 d6b9
000000f0: d003 85ba c0ac c039 00ba 9d36 1ae2 c4ba
00000100: 0a34 013b 3a9c e1ba 10cc e53a 0e07 3cbb
00000110: bf28 f5ba 90aa f539 0008 f4ba f230 18bb
00000120: 48f0 cab9 e4b0 233b 8801 ec3a 807d e5b7
00000130: 6926 e2ba 3136 bdba cdd3 32bb 01bb 3dbb
00000140: b43e 2aba 830d 1fbb 10f5 8e39 dcf5 a7ba
00000150: 0eda 173b c0b9 b53a c83f 63ba 9ec8 413b
00000160: 2478 a13a 2b0d 9bba 9c96 4b3a 9cae 36bb
00000170: 00ce 6039 9b7d 43bb fadb 1dbb 78bf 053b
00000180: 00f4 e438 4424 d83a 1e4a 9bba 0fd8 3fbb
00000190: 8cb4 0dbb 48fa 9b3a 0862 433b c0cb 1539
000001a0: e01c db3a fb8c bfba 5250 333b 00a6 2bb8
000001b0: 5eaf 12bb 7460 bd3a e816 23ba e8b0 9539
000001c0: 0239 02bb 20c7 6239 8092 7238 20b0 aeb8
000001d0: e00b d638 85c2 cfba cc15 193a bc7e 533a
000001e0: 2ab5 263b 9099 7e3a 16a4 d6ba 6027 b439
000001f0: 70a3 66ba 60da ac39 6c1d 42bb c04d df39
00000200: 9793 37bb cc2b 01bb 71f7 c0ba 2a28 12bb
00000210: dc81 d9ba e00b c23a 203c cf3a 0686 173b
00000220: 3eec 27bb 31c1 09bb c095 60b8 800f 8739
00000230: ed99 cfba 4072 d83a b8d9 78ba ecee 193b
00000240: 387c 17bb b88c e9b9 5047 b5b9 07ab bfba
00000250: 20fc 83ba d01d b339 c64e 3c3b d9c5 c2ba
00000260: 3fa5 ddba 18b4 313b de4b 84ba 40a2 2438
00000270: 1f52 39bb 5011 c13a 0875 de3a 4006 173b
00000280: 0f7f 89ba 1c49 86ba b834 b3b9 c447 e3ba
00000290: e80b 41bb 8b3b 42bb 8770 c2ba e1ff 09bb
000002a0: c497 1aba 8427 34bb b546 f8ba acb6 59ba
000002b0: c00f 563a ed7f 27bb 5c36 6c3a a819 9839
000002c0: b4d5 0abb b8ac 823a 00f4 4237 204f bb3a
000002d0: 2056 9bb9 e0f5 ae3a 2052 1c3b a6e6 10bb
000002e0: c2cf 213b aef2 3ebb 5196 f5ba 2a8b 3c3b
000002f0: a1b9 08bb 0079 af3a 147f 30bb d6b0 403b
00000300: 3486 58ba fc6a 1c3b 0c87 b1ba f04e 6a3a
00000310: 1dda 16bb 0d94 34bb cd49 31bb 345e 873a
00000320: 78ea 2c3b d07f dbb9 9a8c 2c3b 0ca1 1dbb
00000330: 62e6 03bb 58ed 723a 6fd4 11bb 3ce7 72ba
00000340: c12a 35bb a8d5 583a 6ae6 bdba d8a3 4c3a
00000350: 74f6 813a d8f2 ad3a 8edc 40bb 10df 4cba
00000360: 70d4 ca3a f6cf 323b 482d 1a3b 6030 413a
00000370: c0d1 f83a c1b0 3fbb 5830 1dbb 60a9 ed38
00000380: ebe4 d4ba 4827 cdb9 220a 393b 7ee3 26bb
00000390: b0e4 db39 96fa 083b b45b 373a a041 2cba
000003a0: 3036 b2ba 46f3 3a3b a006 0739 54b9 99ba
000003b0: f066 4a3a 00fb 21b9 bae7 193b e4bb 6aba
000003c0: acbb 483a e8d6 3b3b 8659 1d3b c458 15ba
000003d0: 6e7f 363b 22ff 033b 003f 59b9 d23e 223b
000003e0: 582f cd3a 5a18 3ebb 4081 c039 25a0 feba
000003f0: 1429 7bba 7449 44bb ac28 513a 1f09 e1ba
0.002486797 -0.0022917949 0.0015365197 1.9827858e-05 0.0012970623 -0.0029230425 -0.0007775405 -6.412156e-07
0.0016853316 -0.00035814894 -8.170935e-05 -0.00011125952 -0.0005615093 -0.00255576 0.0019377209 -0.0025176788
-0.0029593692 -0.0028414573 -0.00085308007 -0.0023893355 -0.0027838133 0.0019681584 -0.0010821826 -0.0013944394
-0.0014819852 0.0010363958 0.00031077932 0.0018201647 0.00047980784 -1.3236422e-06 0.001090711 0.0017804699
-0.0029477568 -0.0026837443 -3.5697594e-05 -0.0011041624 -0.0010828547 -0.00038657687 0.00018353644 0.002910222
0.0009452915 -0.0011515431 9.980961e-05 0.0016201846 -0.0029384037 -0.0018006796 -0.0026616058 -0.0010587233
-0.002272232 0.0014761942 0.00069090235 -0.0005965687 0.0015961975 -0.0019769294 -0.0022656478 0.002549083
0.002989517 -0.001800798 0.0002661564 -0.00040858053 -0.0010148231 0.00036749803 4.700618e-06 -0.0015020997
0.0019714856 -0.0017212697 0.0017532129 -0.0028690728 -0.001870416 0.0004685712 -0.0018618107 -0.0023222533
-0.00038707466 0.0024977261 0.0018005827 -2.7357368e-05 -0.0017253879 -0.0014435706 -0.0027286888 -0.0028950574
-0.0006494329 -0.0024269528 0.00027266936 -0.0012814361 0.0023170742 0.0013864562 -0.0008668867 0.002956904
0.001231913 -0.0011829486 0.0007766278 -0.0027875071 0.00021439046 -0.0029829505 -0.0024087415 0.0020408314
0.00010917336 0.00164903 -0.001184765 -0.0029273068 -0.0021622507 0.0011900151 0.002981307 0.0001428565
0.001671698 -0.0014614159 0.0027361107 -4.0924177e-05 -0.002238236 0.0014448301 -0.000622137 0.000285513
-0.0019870405 0.0002162722 5.7833735e-05 -8.3297724e-05 0.00010206527 -0.0015850818 0.0005839735 0.0008067896
0.0025437572 0.00097122137 -0.0016375806 0.00034361612 -0.0008798158 0.00032969099 -0.0029619588 0.00042591803
-0.0028011554 -0.0019709943 -0.0014722181 -0.0022301772 -0.0016594487 0.0014804564 0.0015810765 0.0023120656
-0.002562299 -0.0021019692 -5.3545227e-05 0.00025760755 -0.001583872 0.0016513541 -0.0009492892 0.0023488356
-0.0023114812 -0.00044546067 -0.00034576142 -0.0014623114 -0.0010069646 0.00034163753 0.0028733476 -0.0014859989
-0.0016910209 0.00271154 -0.0010093411 3.9251754e-05 -0.0028277708 0.0014729891 0.0016972134 0.0023044497
-0.0010490137 -0.0010245177 -0.0003418082 -0.0017340113 -0.002945656 -0.002963754 -0.0014834561 -0.0021057057
-0.00058972486 -0.0027489373 -0.0018941971 -0.00083051133 0.0008165799 -0.0025558427 0.0009010786 0.00029010815
-0.0021184506 0.0009969687 1.1620112e-05 0.0014290549 -0.00029628072 0.0013348423 0.0023852661 -0.0022110133
0.0024690484 -0.0029136348 -0.0018736814 0.0028769472 -0.0020862597 0.0013387501 -0.0026931213 0.0029402277
-0.0008259744 0.0023867479 -0.0013544275 0.0008938154 -0.002301819 -0.0027554065 -0.0027052045 0.0010327757
0.0026384871 -0.00041866163 0.0026328922 -0.002405229 -0.0020126333 0.00092669344 -0.0022251864 -0.0009266024
-0.0027643892 0.00082715834 -0.0014488224 0.0007806397 0.0009915368 0.0013271226 -0.0029428336 -0.00078152213
0.0015474688 0.00272846 0.0023525525 0.0007369574 0.0018983409 -0.002924964 -0.0023985114 0.00011332589
-0.0016242539 -0.00039129914 0.00282348 -0.0025465186 0.0004194132 0.0020901314 0.0006994561 -0.0006571058
-0.0013596471 0.002852635 0.00012877071 -0.0011728206 0.00077210274 -0.00015447661 0.0023484067 -0.00089543895
0.000765736 0.002866203 0.002400966 -0.0005697126 0.002784695 0.0020141085 -0.00020718202 0.0024756682
0.0015654368 -0.0029006214 0.00036717393 -0.0019426389 -0.0009581011 -0.0029951008 0.0007978778 -0.0017168856

fc2.bias f4 [128]
00000000: 944f 38bd 6caf 0cbd fdf1 ce3d 1bc9 4dbd
00000010: ed74 4b3d 583e 84bd df90 aa3b 0cc2 aebc
00000020: 1149 92b7 8b9b 13bd 1891 70bb 7f02 383d
00000030: 6d1a 50bd 7761 aabc b087 b23c 4e30 10bd
00000040: 5f24 76bd d809 c7bb b09f 35bd 8758 09bd
00000050: 66b7 453c 0552 833d e19e 44bc 5bf2 703d
00000060: d6b3 37bd 8103 4bbc b17a b5bc c0ae ac3b
00000070: c18e 58bc 9497 5b3c 030d f1bb 4c6f 82b9
00000080: 7226 eeb9 9480 03bd a67d 8f3c 8403 aebc
00000090: 94c1 82bc cb74 023c 2417 e3bc 4284 a3bc
000000a0: b4b5 3cbd 0d8b 7c3d 5e98 32bd e3cf fbbc
000000b0: fa45 b13b d156 24bd b625 763d 9d48 bf3b
000000c0: 4509 703c b8da 5fbd 4f19 33bd 1d6a 4dbd
000000d0: f0eb a43c 8479 993d 55d2 5dbd 210b 463d
000000e0: 0605 bebc 891e 0dbc 5873 09bd e214 6d3d
000000f0: b631 f4bc 7081 7e3c ec02 12bd 7f3f 23bd
00000100: 2071 2ebd aec6 e53c 0056 a73b c886 513b
00000110: 7b12 73bd f12d 09bd 0514 1ebd 7060 93bc
00000120: 4c51 ddbc c09f a53c 033f 66bc 4df7 b63d
00000130: 6d42 513c f8f4 a93c 3484 13bd e2ea 18bd
00000140: 767a c2bc 204b 2a3b 5bbc dfbc a7d6 e7ba
00000150: 912a 52bd 0f2e 5cbd dc1d 283d 21b6 e43c
00000160: e7bb 48bc 3946 3f3c 5c85 02bc e655 59bd
00000170: a045 bf3c 41f9 003c be2c 22bc d6c8 99bc
00000180: ca2b f9bc 1207 873d 1ec3 f53c 8daa 683a
00000190: cf01 113d b4b6 113d b146 3fbd 736d 343c
000001a0: d75a 1fbd 5516 78bc 8c8a 603c dce3 303d
000001b0: d13c 953d 9796 1d3c 6c96 dcbc 9025 5dbd
000001c0: 7741 48bd 25db 57bd 301d 1ebd 435e 08bd
000001d0: 60d1 b8bb 1e9a 35bd 709e c7ba 7849 5f3d
000001e0: 70ff 0f3d 33c1 77bd d4f7 8a3c 7a9d 51bc
000001f0: 3f97 613d 21a4 d63c 70fe 693d 2338 28bd
-0.044997767 -0.034346983 0.10104749 -0.050240617 0.049672056 -0.064572036 0.0052052583 -0.021332763
-1.743858e-05 -0.03603701 -0.0036707576 0.044924255 -0.05080645 -0.020798428 0.021793216 -0.035202317
-0.06009328 -0.0060741715 -0.044341743 -0.033531692 0.012067651 0.06412128 -0.01200077 0.05882488
-0.04484924 -0.012390972 -0.02215323 0.0052698553 -0.013217629 0.013402838 -0.0073562874 -0.00024878455
-0.0004542354 -0.032105044 0.017515969 -0.02124191 -0.015961446 0.007962416 -0.027720995 -0.019960526
-0.046071723 0.061656047 -0.04360234 -0.030738777 0.005409953 -0.040121857 0.060094558 0.0058375136
0.0146506475 -0.054651946 -0.043725308 -0.050150026 0.020132035 0.074938804 -0.054155666 0.048350457
-0.023195755 -0.008613237 -0.033557266 0.057881244 -0.02980886 0.01553379 -0.035647318 -0.039855476
-0.042588353 0.02804884 0.0051066875 0.0031971205 -0.059343796 -0.03349108 -0.03859331 -0.01799032
-0.027016304 0.020217776 -0.014053109 0.08933888 0.012772185 0.020746693 -0.03601475 -0.037333377
-0.023740035 0.002598472 -0.027311495 -0.0017687873 -0.051310126 -0.053754862 0.0410441 0.027918877
-0.012251831 0.011674457 -0.007966366 -0.053060435 0.02334863 0.007871927 -0.009898363 -0.018772524
-0.030416388 0.065931454 0.030000266 0.00088755117 0.035402115 0.03557463 -0.046698276 0.011012423
-0.03890499 -0.015142043 0.013704907 0.043186054 0.072869904 0.009618423 -0.026927195 -0.0539909
-0.048890557 -0.052699227 -0.038602054 -0.03329302 -0.005640194 -0.04433643 -0.0015229713 0.054513425
0.035155714 -0.060486984 0.016963877 -0.012793893 0.05507588 0.02620131 0.057127416 -0.04106916

fc3.weight f4 [2, 128]
00000000: 55fe 00bb e62a 9fb9 fe45 f1bd b4e5 94ba
00000010: 94a8 eabd 6b3a 073e e9c9 37bd 6049 58bd
00000020: f89c 603e 01c2 19bd 3a63 44bd f0b6 ddbd
00000030: b0c3 46bd 9981 663d d866 ecbc 701c 6cbd
00000040: 2251 a33a 462c 51bd 63aa 27bb 6476 1d3f
00000050: 4185 0fbd c4e9 d2bc dc66 0fbe 7141 8fbc
00000060: 55cb c83d d078 013e 9016 48bb b7c4 533d
00000070: c498 0f3f 1359 603d e04d 78bd 2d4b a2bd
00000080: c91f 0dbe 1069 89bd 865a 8fbd a679 04bd
00000090: c1f8 5abd 9b34 31bd c6c3 d1ba ebab e4bc
000000a0: eda4 4ebd f0e1 d9bd 3142 0b3e 881d ef3a
000000b0: 5ec0 4d3d 45e8 c2bb dde0 fdbc 6263 b1bd
000000c0: 0513 283d 0ef0 32bd 7b2d 333b 71b0 fc3d
000000d0: feba 06bc 70b6 54bc 4d82 da3a 8a05 93bd
000000e0: efc2 d53d 6fc7 93bd 7b43 da3e c656 69bd
000000f0: 66d9 fd3e 4b35 2fbd a149 5a3e f3e0 d63a
00000100: 1894 c8bd a414 fdbd 0f8c 6c3d 862c a5bc
00000110: 9041 a83b a3d7 63be 7be6 ad3d 266d db3d
00000120: c5ca f2bc b4f3 8ebd 8c8b a63d e6f5 eebc
00000130: 47bf 3ebd cf1c 4f3b 8ef1 923a 5c12 feb9
00000140: 5b97 76bd 9d83 b8be 80b3 463d 97b3 093e
00000150: 5e6e 163b 4396 40bb ecfe adbc cbf1 813d
00000160: dd45 a43d c11f 8dbd e550 223d 12c3 093e
00000170: 3a1f 80be 8eda 33bd fd8d 1dbd 6207 773d
00000180: 8533 2ebb d25e dbbc f677 3cbd 057b 563d
00000190: d935 e3bd 73d5 a6bd 2419 0b3e 7fac 05bb
000001a0: 6f55 39bd 77fc 353d ee6f 763e e302 d7bd
000001b0: ef7e 3dbd 1f24 753e 6ceb a1be 553a f0ba
000001c0: 8c12 40bd 7ea6 ab3e a893 94bd 2f2e 92bd
000001d0: 610c 9fbd 5cd3 ec3d 6e07 b83d dad4 cebd
000001e0: 662f dfbc 2303 723e 34ee 2abb 5391 8a3e
000001f0: 26e2 d5bc f057 09be aff1 b5bd e268 823d
00000200: 1c10 86ba 1a88 c33a 6359 e5bc d29f 23bb
00000210: d34e ac3c 99a0 953d 057f 01be 8ed9 0f3d
00000220: e1da ffbc 3819 aa3d 7c3f 1e3d 9c6e 523c
00000230: 7380 293d af78 d43d 1301 323d 5c3f 273d
00000240: 52d1 113b e1eb 6a3d a2f4 1aba 388e a43d
00000250: ff0e 333d 1a8a c8bd 618b 4bbe de99 cabd
00000260: e8d1 9e3d 9089 27bd 59b5 13bb 12ff 3a3d
00000270: e571 583d 5c8b 9e3d 748d be3d 8dd7 183d
00000280: b640 823e ebc1 943d 2afe 5f3d 9318 963d
00000290: 488d 293d ef1b 163d 1ca7 72ba f747 2a3d
000002a0: 8d80 253d 7a5f f33b e455 0fbc 2c3b 4d3a
000002b0: 06b4 303d cc4a 123e b489 c1bd d2e2 033d
000002c0: 6cf4 413d 4b9f 223d dc77 3eba 9c98 dd3d
000002d0: d688 a63d 141a c9bd 089f e8ba d58a 2ebe
000002e0: b59b c43d 9862 9cbe 4ea5 28be 0cb8 b9bd
000002f0: 1c8d 5ebe 23b4 1fbe 5e41 8abc 5489 b9b8
00000300: acfb 413e c460 0bbe ddb5 313d c5a5 d0bd
00000310: 2a1b 67b9 4011 4b3e 83e1 d93c 59da b43b
00000320: cd2d 2d3d 20ae 193d 12da 873d 95b1 c3bd
00000330: 771f 193d 86ca a73d c085 76bb 448e a4ba
00000340: 4f9d 103d 21b9 c83d ad38 963d 5300 373e
00000350: c332 f4ba 5850 3fb9 9437 cdbd 7cc6 e23c
00000360: c1f5 e93c a05b cc3d 9f0f 02be b161 8cba
00000370: 8b25 523d 9371 623d 41e5 8e3d 8470 f73c
00000380: 593d 9a3b 56e0 cabd d894 163d ffa1 333d
00000390: 2c82 243c 0588 7b3b e5ca 7fbb 364d 48bc
000003a0: 8c27 d23d b2e1 573d a9d0 8fbd b482 043c
000003b0: 778a bdbd 04eb 61bd e239 c43d fa9d 313b
000003c0: 32ab 283d d012 6cbd df14 473d 5927 4f3d
000003d0: 0c1b 003d d420 173c 12d0 413d 01c2 2a3c
000003e0: e8ca cdbd ca78 e2bd 93b6 9b3d e41c a13c
000003f0: 2c28 c4bd 82f7 b73d 73cc a63c b8bf 3d3d
-0.0019682844 -0.00030358805 -0.11780928 -0.0011359961 -0.11457935 0.13205878 -0.04487029 -0.05280435
0.21934879 -0.037538532 -0.047946192 -0.10825908 -0.048526466 0.056275938 -0.028857633 -0.057644308
0.0012460093 -0.051067613 -0.0025583736 0.61508775 -0.03503919 -0.025746234 -0.14004081 -0.01748726
0.098044075 0.12643743 -0.0030531026 0.051701274 0.56092477 0.054772448 -0.060621142 -0.07924495
-0.13781656 -0.06709492 -0.06999688 -0.032342575 -0.053459886 -0.04326306 -0.001600378 -0.027914008
-0.050450254 -0.10638797 0.13599469 0.0018243054 0.050232284 -0.005948099 -0.030991012 -0.08661534
0.041033763 -0.043685965 0.002734034 0.12338341 -0.008223293 -0.01298295 0.0016670913 -0.07178791
0.10437571 -0.07215773 0.4262961 -0.05696752 0.49579924 -0.042775434 0.2131715 0.0016393944
-0.09793872 -0.123574525 0.057750758 -0.020162832 0.005134769 -0.22250228 0.08491226 0.10714178
-0.029637704 -0.069800764 0.08132085 -0.029169988 -0.046569135 0.0031602865 0.0011210905 -0.00048460334
-0.060202938 -0.36037913 0.04851103 0.13447414 0.0022953968 -0.0029386438 -0.02123972 0.063449465
0.08021138 -0.06890822 0.03962793 0.1345332 -0.25023824 -0.043909602 -0.03846549 0.060309775
-0.0026581 -0.026778612 -0.04601284 0.052363414 -0.11094255 -0.08146181 0.13583809 -0.0020397005
-0.04524749 0.044430222 0.24066135 -0.104985975 -0.04626363 0.2393956 -0.31624925 -0.0018327931
-0.046892688 0.3352546 -0.07254726 -0.07137715 -0.07766033 0.11563751 0.08985792 -0.10099192
-0.027244281 0.23634009 -0.0026081922 0.27064 -0.026108813 -0.13412452 -0.08883988 0.06367661
-0.001022819 0.0014917881 -0.027996724 -0.0024967087 0.02103368 0.07306022 -0.1264611 0.035119586
-0.0312323 0.08305591 0.038634762 0.012843754 0.041382264 0.10374581 0.043458056 0.04083191
0.0022250009 0.057353858 -0.0005911087 0.080349386 0.043715473 -0.09791966 -0.19877388 -0.09892629
0.0775488 -0.040902674 -0.0022538512 0.04565341 0.052842993 0.077414244 0.09304324 0.03731494
0.25439996 0.072635494 0.05468575 0.07328906 0.041394502 0.036647733 -0.00092564686 0.041572537
0.0404058 0.007427153 -0.008748505 0.00078289467 0.043140434 0.14286345 -0.09450093 0.032198735
0.04735224 0.039702695 -0.0007265785 0.108201236 0.08131568 -0.09819427 -0.001774759 -0.17045148
0.09600011 -0.3054397 -0.16469309 -0.09068307 -0.21733516 -0.1559606 -0.016876873 -8.847067e-05
0.18943661 -0.13611132 0.04338633 -0.10187868 -0.00022039996 0.19830799 0.02659679 0.005519193
0.042280007 0.037519574 0.066333905 -0.095553555 0.037383523 0.08192925 -0.0037616342 -0.0012554605
0.03530627 0.098009355 0.07335029 0.17871217 -0.0018630851 -0.0001824511 -0.10020366 0.027682535
0.028559567 0.099784136 -0.12701271 -0.0010710267 0.051305335 0.055284094 0.069773205 0.030205019
0.0047070202 -0.0990607 0.036763042 0.043855663 0.010040801 0.0038380635 -0.0039030847 -0.01222544
0.10261449 0.052705474 -0.07022221 0.008087803 -0.09254926 -0.05515577 0.09581353 0.0027102218
0.04117889 -0.05763513 0.04860389 0.050574634 0.031275794 0.009224135 0.047317572 0.010422231
-0.10048467 -0.11058195 0.07603183 0.019667096 -0.09577975 0.08982755 0.02036116 0.046325415

fc3.bias f4 [2]
00000000: 7ba1 a33b 7846 763d
0.004993615 0.060125798

fc1.weight f4 [256, 24]
00000000: c6f4 0d3b 25f2 d5bb ac5d fdb7 8d4f 07bb
00000010: c362 7c3a 3beb bc39 daff 4fba c520 8a39
00000020: acdd 3d3b 4833 7dbb 0a16 ecba 4581 c7ba
00000030: c2d2 3f3b e71e c6ba 4e8a 753a d0d8 42bb
00000040: 23b9 443b ab5b 75bb 6110 8a3a cc25 2fbb
00000050: 02d3 e93a 5ca3 26bb 5c84 a5ba 979c 063b
00000060: a3ab 5a3d 9c60 1fbd 0966 2b3b ca2c 913a
00000070: bcfb 8fbc 3290 90bc 80a9 49bb d835 673b
00000080: 493a 203d 6800 4cbd c949 23bb 40c0 903c
00000090: b7bd cabc 538b 21bd 3c6c 5bba 2ed8 ac3c
000000a0: 410b 643d 1422 20bd f25f 483b c3b6 023d
000000b0: 46ee 2fbd 559b babd 8eca 323b a9f6 163d
000000c0: 14cb e83c a9ed a53c f796 2ebb 9d90 e4ba
000000d0: 201a 5c3c f319 2ebd 7b03 89bb f16a 2f39
000000e0: 92d3 7cbc 9de7 69bc b5fd 58bb 3c6e 9fbb
000000f0: 2d32 893e ef1f 80bd e6e8 f1ba 96a6 25bb
00000100: a757 05bc c9a4 44bc 5990 7eba 45f9 8dbb
00000110: 35dd 933b 2d39 d33d 4301 ef3a acd9 cdbb
00000120: ad1e ca3c 09cf f1bc 8cb6 5c3a 9699 00bc
00000130: bf8c 34bd 3bf3 de3b 97fa b638 6324 8fbb
00000140: 6474 773d 96c6 78bc bc46 59bb e5d5 c6b7
00000150: f154 66bd 5eea 2c3c c3b9 e3ba 3925 863b
00000160: 0dc3 ba3d 8432 8b3b a1b6 ddba b7ea cb3a
00000170: 779b 90bd 4805 9e3c b127 84bb b1d6 713b
00000180: 008a 19ba 50f7 143b 28c4 b63a ac92 58ba
00000190: c245 063b 92ea 143b 2cda 2d3a aa4c 153b
000001a0: 1d51 2abb 4ea2 143b 2e7e 443b d0d5 013a
000001b0: 2970 0bbb dcef adba 09e9 05bb a01b 183b
000001c0: 2864 083b b895 843a 1053 cb3a a8f2 02bb
000001d0: ee42 0f3b 8cd3 833a 2cdb 3eba 8515 3cbb
000001e0: 9874 cd3c f5a9 e73d e469 b4b9 7672 8e3c
000001f0: c336 473d 749a b13b efc1 88b9 f497 9e3c
00000200: 1244 ad3c e173 c53d a71b 78ba 07f0 073d
00000210: ee8a 573d 93b7 f03a 0b85 e039 b63d fc3c
00000220: ebd0 aa3c b776 a03d af39 f2ba 2cab 7f3d
00000230: 6155 933d 5f5d f13c 1ca4 1b39 748b 873d
00000240: 7509 d1bb 053a 6e3c 7154 f53a a618 0c3d
00000250: 561a 4b3c fac7 40bd b3c1 063a 56eb 123d
00000260: eba1 c3bc 6cb4 263b 817f 8e3b 2b00 20bc
00000270: b33c a13c 1def dfbd 9c8e 9cba ad25 33bc
00000280: 117a 06bd df29 5739 757b 233b 20cf 803c
00000290: 1690 073b 781b 39be a751 4c3b e4b9 943c
000002a0: f6b3 be3d 5158 d73c d4f0 cb3a f547 723c
000002b0: fb62 30bd 146f fbbc 1d74 3bba 7296 823c
000002c0: 0ffa 5a3d a07e c0bc c224 f33a 51bf 263c
000002d0: 4b1c 203d 55de a63c 0454 d43b 71c7 dc3b
000002e0: cc5b 85bc fdfb edbc 73b1 463b 01b0 053b
000002f0: 0055 723a f2b8 6c3d cab5 b43b 3b36 8bb9
00000300: 9762 c63c bd58 1e3d af37 01bc fa1b 383d
00000310: a5ea 9fbc e08b 7ebd e3c8 2ebc 2ace 3f3d
00000320: 52e7 693b e66c 263c 535c abbb f7b2 95bb
00000330: 60c6 13bc c276 56bd 2a64 b2bb 4b28 d9bb
00000340: 9363 3a3b c4ff dd3c a880 37bc e162 a43d
00000350: 26cf bd3c ad2a cabd 1206 2dbc 9781 a03d
00000360: df7c 13bd 1b42 b8ba 05f6 103b 2943 7cbb
00000370: 7847 563c 5cca 22be 6144 1fbb b725 74bb
00000380: 2011 883b a292 1e3d 82d9 29bb cb01 ca3a
00000390: 5cb4 47bc 919f 4cbc 8ceb 04bb 3746 c439
000003a0: e411 1d3d cd8b 693d 2b10 aaba c36f 76bc
000003b0: b82d dcbc 5c37 833e 8ac9 25bb 9f67 5bbc
000003c0: 48cf d739 7888 183b 906f 0ab9 707c 373b
000003d0: 7c64 8e3a d0a4 753a 1422 6c3a b1c9 91ba
000003e0: c40b 2f3b cc75 083b 1c0a 6dba 2c2f a73a
000003f0: dc96 063b 14b3 9b3a 92ba 203b 7a13 253b
0.002166079 -0.00652911 -3.020357e-05 -0.0020646781 0.0009627754 0.00036033415 -0.0007934548 0.00026345826
0.0028971238 -0.0038635302 -0.0018011939 -0.001522102 0.0029269909 -0.0015115411 0.00093666173 -0.002973128
0.0030017577 -0.0037438672 0.0010533446 -0.002672541 0.0017839374 -0.002542696 -0.0012627947 0.0020540112
0.05338634 -0.038910493 0.0026153347 0.001107597 -0.017576091 -0.017646883 -0.0030771196 0.0035279896
0.039118085 -0.049805075 -0.0024915806 0.017669797 -0.024748666 -0.03943951 -0.0008370315 0.021099176
0.055674795 -0.039095 0.0030574766 0.031912576 -0.042951845 -0.091116585 0.0027281377 0.036856327
0.028417148 0.020254927 -0.0026640275 -0.0017438118 0.013433963 -0.042505216 -0.004181323 0.0001672914
-0.015431302 -0.014276412 -0.0033110206 -0.004865436 0.26796094 -0.06256091 -0.001845625 -0.0025276295
-0.008138574 -0.0120021785 -0.00097108405 -0.0043326938 0.004512454 0.1031364 0.0018234629 -0.006282052
0.02467283 -0.029517667 0.00084195356 -0.007849118 -0.04407954 0.0068038977 8.725112e-05 -0.0043683513
0.060413733 -0.015184065 -0.0033153733 -2.3703042e-05 -0.05623335 0.010553924 -0.0017374087 0.0040937928
0.09119234 0.0042479653 -0.001691539 0.0015557621 -0.070609026 0.019289628 -0.004033052 0.0036901648
-0.00058570504 0.0022730418 0.0013943957 -0.0008261602 0.0020488356 0.0022722823 0.00066319364 0.002278129
-0.0025988289 0.002267975 0.0029982436 0.000495282 -0.002127657 -0.0013270336 -0.002043309 0.0023209825
0.002081165 0.001011542 0.0015512425 -0.001998106 0.0021859962 0.0010057553 -0.0007280584 -0.002869935
0.02508001 0.113117136 -0.0003441117 0.017388564 0.04863621 0.0054200236 -0.00026084433 0.019359566
0.021150623 0.09641243 -0.000946457 0.033187892 0.052622728 0.0018365256 0.00042823734 0.030791145
0.020851573 0.07835143 -0.0018480326 0.0624191 0.07194019 0.029463468 0.00014843087 0.066183954
-0.006379301 0.0145402 0.0018717182 0.034203194 0.012396416 -0.047065713 0.0005140558 0.035868965
-0.02388092 0.002543713 0.0043486957 -0.009765665 0.019682264 -0.10934279 -0.0011944356 -0.010934276
-0.032831255 0.00020519596 0.0024945412 0.015723765 0.0020685247 -0.18076885 0.0031176598 0.018155046
0.093116686 0.02628723 0.0015559443 0.014787664 -0.043063145 -0.030692615 -0.0007150786 0.015940879
0.05346113 -0.02349788 0.0018550383 0.010177449 0.039089482 0.020369688 0.006479742 0.0067376425
-0.016279124 -0.029050821 0.003031817 0.0020399096 0.00092442334 0.057793565 0.005514835 -0.0002655255
0.024216933 0.038658846 -0.007886811 0.044948556 -0.019521067 -0.062145114 -0.010668012 0.046827473
0.0035690856 0.010157799 -0.0052295118 -0.0045684534 -0.009019464 -0.05235935 -0.0054440694 -0.0066271177
0.0028440699 0.027099498 -0.011200108 0.08026672 0.023170065 -0.09871421 -0.010560529 0.07837217
-0.03600776 -0.0014057787 0.0022119295 -0.003849218 0.013078563 -0.15897506 -0.0024302232 -0.0037253925
0.004152432 0.03871406 -0.0025916998 0.0015411911 -0.012188997 -0.0124892155 -0.0020281998 0.00037436347
0.03834714 0.05701809 -0.0012974789 -0.0150412945 -0.02687727 0.25628173 -0.0025297129 -0.013391404
0.00041162432 0.00232747 -0.00013202266 0.0027997755 0.0010863687 0.0009370567 0.00090077636 -0.0011122731
0.0026709894 0.0020822166 -0.0009042339 0.0012755147 0.0020536697 0.0011878931 0.0024525267 0.002518861

fc1.bias f4 [256]
00000000: 9327 27be ec79 af3b 8859 5fbd 4fe8 ca3d
00000010: 17bc 4fbe 0b08 25bd 5500 d93d e654 ee3c
00000020: 7525 a6bd 3214 5cbd d73f 22be 8a24 823d
00000030: ca24 503d 080f 223d a738 213d e322 e6ba
00000040: ee08 603b f216 32bd 0e9e 3dbe bc4c d53c
00000050: 7a3f ef3d 344b 893d b8b9 85bd 179f 3cbe
00000060: 6671 b3bc 51fa 053d 6a43 5ebe 7152 723d
00000070: 67f6 0cbc cf7b a43d d070 1b3e 9b13 953d
00000080: c3cb 02be f420 443d f1a5 b63d e0f8 4dbc
00000090: 0513 15be 30c2 483d 2445 2ebe 3806 38bd
000000a0: 98b3 3fbe 9ece 3e3c 8ae8 073e 6370 4abe
000000b0: f0e9 dabd d0e1 f0bd 3b04 4fbe 5850 503e
000000c0: 29b5 8abe 2397 dbbd a643 30be f8fa 17bd
000000d0: a973 29be 670c 22be 2ecf e93d 21ad 283d
000000e0: fc1e 703d 8c44 b33d f73e ffbc 2900 3f3b
000000f0: 61dc 3bbe f817 293d 4bbe 4fbe a29a 31bd
00000100: 0818 12be f6af bebd 0bc4 f4bd b59f 14be
00000110: bdbd 06be be14 fdbd 42f0 c1bd 7c8d 42be
00000120: 1e9d d53d 703c 8abd 0ce8 4fbe a60c 53be
00000130: b0df 23be cb5b 993d a70b b53d 3dcf 2fbd
00000140: 801e 8e3d 7fff e2bd eddf a0bd 4107 1ebd
00000150: ab80 4bbe 383e 02bd b189 d33c 22fa b73d
00000160: 92fd 61be 9737 d3bd b3e6 0ebd 50a0 33bd
00000170: eb83 f43c f19c 1ebe 204f b03d dee1 3cbe
00000180: c3a4 f4bd a87a 013c 6c2b abbd aa1b ebbd
00000190: 7f42 6fbe 8064 e53d 15dd adbb 8efd ba3c
000001a0: d151 293d 0672 1bbe 3751 edbd fed8 0a3e
000001b0: a806 edbd 4b51 dcbd 36b3 dd3d a16f e8bd
000001c0: 51d5 af3d c82a d7bd df6c a83d 6a21 b1bb
000001d0: 6fa4 32be 089b 34be 3640 1f3d 19f8 98bd
000001e0: d2a5 a03d 7c71 d6bc ae6c fdbd 9229 7cbd
000001f0: 6e25 a2bd f74f 9a3d c778 2d3e 4fec 38bc
00000200: 9d9f 2abe cb12 103e 716f cf3d 0a0c d83d
00000210: 7385 b73c 63e8 cc3c 58fd 593a 3e54 c0bd
00000220: ab90 56be ca6d 36bd be07 553d 5d99 f63d
00000230: bd19 4bbc 2c59 553d 5bac 023e 8d5e a7bd
00000240: a763 e03d e391 0ebd b2dd b8bd 261e bdbd
00000250: 118c 00be beca 88be 800a 7b3d 07c0 f73d
00000260: d833 73bd de86 c5bd 35b6 1abe 8b0c cabd
00000270: 2395 f9bd 8d5b 1f3d 781e 3a3d ac91 01be
00000280: 2900 823d 1163 f3bc 673f 87bc 59d1 ce3d
00000290: 1e46 bdbd fb64 203e abbc fabd 3f22 4a3e
000002a0: 1618 783d 77e4 22bc 3a99 78bd 7d50 adbd
000002b0: 1195 4fbe c972 48be 1065 033e beac 3a3e
000002c0: 42d7 473d 5897 a8bd a913 e83c b9f2 dfbc
000002d0: ea4c 8fbe 79a9 54be 10cd 2c3d 4ddf 9fbd
000002e0: 3f8e dfbd bb50 03be fbd3 9c3d 784c 29be
000002f0: 4af3 a4bd 36fd 113d a5d0 033e a28f 473e
00000300: 608f 8b3d 7230 9ebd dad4 69bd 5ea9 393e
00000310: 3bd4 843d 8993 503d bc16 773d f8ea 813d
00000320: 9373 dd3d 4023 09bd 10a5 62be 32ad 14be
00000330: 2db7 4abe c318 f8bd 5b66 ad3c 7f8b cabd
00000340: 0cc3 38be 8662 0bbe 67b8 903d 167c d4bc
00000350: 99c2 b5bd 36a1 c0bb 1785 4fbd aa0c 01be
00000360: 0aac 12be 78fc b1bd e8e2 48be 6e64 49be
00000370: a913 b7bd 0b37 1e3c 1cba 603e a403 b4bc
00000380: fd2d d73d fe0d 9cbd df88 22be 3ddd 32be
00000390: c772 9dbd 6d80 42be ae24 b03c 5db7 c2bc
000003a0: 55ba 4dbe 6142 78bd 411e 3bbe cbe0 3c3e
000003b0: 34ec dd3d 11f5 c0bd 38be 353e 853c 09be
000003c0: ddf9 543d d771 bdbd 2599 333d aa3e 113e
000003d0: 3b81 d03d 2dce dbbc 2fa9 8fbd 1638 e9bd
000003e0: 0288 1e3e 90bb 32be f1ee 99bd 5432 3b3c
000003f0: 246c ddbd c813 0bbe a374 573c 4d33 193e
-0.1632369 0.0053551104 -0.054528743 0.099075906 -0.20286594 -0.040290873 0.105957665 0.029093217
-0.08112613 -0.053730197 -0.15844665 0.063546255 0.050816335 0.039565116 0.03936067 -0.0017558004
0.003418501 -0.043478914 -0.18517324 0.026037566 0.11682029 0.06703797 -0.06529564 -0.18420063
-0.021904659 0.032709423 -0.21705404 0.059160654 -0.008603669 0.08031427 0.15179753 0.0727913
-0.12773041 0.04788299 0.089183696 -0.012571543 -0.14558037 0.049013317 -0.17018563 -0.044927806
-0.18720853 0.011645941 0.132723 -0.19769435 -0.10689151 -0.1176182 -0.20216458 0.20343149
-0.2709134 -0.107221864 -0.17213306 -0.037104577 -0.16548027 -0.15825044 0.114164695 0.041180734
0.0586233 0.08753309 -0.031157954 0.0029144383 -0.18345787 0.041282624 -0.20287435 -0.04336036
-0.1426698 -0.09310906 -0.11951455 -0.14514048 -0.13158317 -0.12357472 -0.09469654 -0.18999285
0.10430358 -0.06749809 -0.20303363 -0.20610294 -0.16003299 0.07488211 0.08840113 -0.042922247
0.06939411 -0.11083888 -0.078552105 -0.038581137 -0.19873302 -0.031797618 0.025822492 0.08983256
-0.22069386 -0.10313337 -0.03488798 -0.043854058 0.02984806 -0.15489556 0.08608842 -0.18445536
-0.11945488 0.007902779 -0.083578914 -0.11479886 -0.2336521 0.112008095 -0.005305896 0.022825982
0.04133779 -0.15180215 -0.11587756 0.13559338 -0.11573535 -0.10757693 0.108251974 -0.113494165
0.08585609 -0.10506207 0.082238905 -0.0054055946 -0.17445539 -0.17637265 0.038879596 -0.07469196
0.07844128 -0.02617716 -0.12374245 -0.061563082 -0.079172954 0.07534783 0.16940604 -0.011286809
-0.1666245 0.14069669 0.10128678 0.10549171 0.0224025 0.025013154 0.0008315644 -0.09391068
-0.20953624 -0.044538297 0.052009337 0.120409705 -0.012396273 0.052086994 0.12761061 -0.08172331
0.10956507 -0.034807097 -0.0902666 -0.09234266 -0.12553431 -0.2671718 0.06128931 0.12097173
-0.059375614 -0.096448645 -0.15108569 -0.09865674 -0.12186649 0.03890567 0.045439214 -0.12653226
0.06347687 -0.029710324 -0.016509725 0.10098524 -0.092418894 0.15663521 -0.12243017 0.19739626
0.060569845 -0.009942166 -0.060693003 -0.084626175 -0.20271708 -0.19575037 0.12831521 0.18229958
0.04878927 -0.082319915 0.028329687 -0.027337419 -0.27988368 -0.20767774 0.04218775 -0.07806263
-0.10915803 -0.12823765 0.076576196 -0.16533077 -0.08054216 0.03564187 0.1287256 0.19488385
0.06814456 -0.07724084 -0.057087757 0.18131015 0.06485792 0.05092195 0.060324416 0.06343645
0.1081306 -0.033480883 -0.22133279 -0.14519194 -0.19796439 -0.12114098 0.021166971 -0.09889888
-0.18043154 -0.13611802 0.07066422 -0.025938075 -0.08875007 -0.005878593 -0.050664034 -0.12602487
-0.1432344 -0.08690733 -0.19617808 -0.19667217 -0.08939297 0.009656678 0.21945995 -0.021974392
0.105068184 -0.07619856 -0.15872525 -0.17467208 -0.07687908 -0.18994303 0.021501865 -0.023769075
-0.20090611 -0.06061018 -0.1827326 0.18445127 0.10836068 -0.09421743 0.17748344 -0.13401993
0.0519961 -0.09250229 0.043847222 0.1418406 0.10180899 -0.02683171 -0.07014691 -0.11387651
0.1548157 -0.17454362 -0.075162776 0.011425573 -0.10811642 -0.13581765 0.013150367 0.14960976

fc2.weight f4 [128, 258]
00000000: 516b 4a3c 1cfc 733c 8842 263c 6493 213c
00000010: 2cb5 933c e823 f8bc 229b b8bc 504c c13b
00000020: 248e 493b 3ad0 8c3d 7a17 9dbc 4559 b5bd
00000030: 9164 b23c 6fd6 0abd 79a8 cebc 027b 033c
00000040: f4fc a2bb e116 fe3c c378 76bc 2f43 af3c
00000050: e5c9 253c 2414 3a3a fbcc 95bb 8adc 5ebc
00000060: bbfa 2ebc f148 ba3b e2a7 db3c 4e40 05bb
00000070: 6bb4 333c 84d1 05ba 4abe 3d3d 56da 84bc
00000080: c50c c8bc 70e6 53bb da37 7ebd 2712 583c
00000090: 88ab f3ba d08b 83bc c2bb 8f3c b014 403b
000000a0: 9081 a23a 3e40 753d 5ed5 3e3d fe4d 933c
000000b0: 5b7f 463c 1449 32bb 660c 193c c7a4 953c
000000c0: 9c83 703b 1064 793c 466a 8fbc 6042 0237
000000d0: d24f 95bc 071d d03b 88a0 c53c ce49 ad3c
000000e0: 862e 7a3c 4e6e 3bbd e78f fb3c 2e35 a3ba
000000f0: 2e39 103c 65a2 36b9 6f5c 4c3d 1d2b 893b
00000100: c7ec a13b 81d4 5dbc ac10 8cbc 39f5 573c
00000110: 802f 6dbc 4741 6bbc 97d4 80bc a48a 863c
00000120: 50e0 863c 8c30 4abb 6a04 953c 6550 6dbc
00000130: 3576 b2bc 3ec9 5ebc 7440 573d 6c01 2bbd
00000140: cc3e 89bc a353 553c 3581 aebb 4c68 78bb
00000150: 95c3 623c 1995 21bc 45bd 35bd 3819 3e3c
00000160: 79d0 273d a66e 073c 6a3b 27bd d7d2 a43c
00000170: 073f ca3a bf54 85bc 8b48 153c 902b 79bc
00000180: 4cf1 09bd 73c4 f7bc 6ced 9e3c 89f4 f83b
00000190: 5306 10bc d6e8 313c 8717 923b c3ae 6c3d
000001a0: b77f e4ba dc7a 983c 4e5a ff3b 3244 d4bc
000001b0: c11c 15bd 3480 103c c7ef e03b 477b f5bb
000001c0: 8611 d33c b185 783c 6c51 b1bb ca8b dcba
000001d0: f2c7 f0bb 63b3 8f3c 8fab f1bc ecd8 7ebc
000001e0: ad1f 743c 4a18 023c 3c9d 293c 6d4e 3cbc
000001f0: d0ac 513d e022 19bc 2ddf 42bc 3b7c 31bc
00000200: 094a d8bb 479b 17bb e7e6 c93c 86a8 0dbc
00000210: ff0f b73c 7649 8d3a d325 93bc d63a 46bc
00000220: f15a 3d3c f239 063c 07a0 27bc fecd b5bc
00000230: cd3e 2fbc 38bd 3a3d eba7 a33c 853a 803c
00000240: e5f9 ddbc bb1a ac3c ac12 c13c 9949 aa3b
00000250: 1f3f a0bc 3378 9f3c 1140 7cbd 7d74 9a3c
00000260: 5533 2f3d 5ed2 01bd a742 95bb 0a4f 723c
00000270: bac7 5abc 1e96 c0b9 f739 ccbb 782f cbbc
00000280: 65d2 bb3c 5324 bfbd 7880 4a3c 7b0f b43c
00000290: 0686 053b 13d3 9fbc 5151 7c3c 0e1d b53c
000002a0: e17b 063c f099 fe3c 6bd7 c93c fb9b 3b3c
000002b0: 577f 76bc 10bf 94bc dd92 03bc e977 603d
000002c0: 526b 9dbd 0c40 02bc 76ff d1bc 6d7b cb3c
000002d0: 2a82 ef3b b31d 38bc 1f5e 6637 1c13 35bc
000002e0: 22ec bd3b e2a7 6cbc 74d6 02bb cb11 4c3b
000002f0: 5314 873b c7a2 88bd 212e 1b3d c577 343d
00000300: c5ef 923a e919 a6bc aefb cc3b 8d10 27bc
00000310: 1d46 903c 7960 333c 54d7 ff3b 39c5 cabc
00000320: b8a9 4e3c a688 253d 9a8b 983b 6c5b 63bc
00000330: 6157 653c cd29 ddbc 5639 003d 91c3 743b
00000340: 7e8a 053c 3927 acbc d805 533c d0e1 463c
00000350: 0ce2 21bc 7035 02bc c636 8d3c d029 773c
00000360: ca52 8dbc cbf7 3fbc bfba 703c c288 723c
00000370: 74e6 3fbc 38ae 793c 31d2 f7bc 7e6c 48bc
00000380: fca5 8cbc bb49 a83d 4acd 7ebc ea49 edbc
00000390: 6ca6 78bc fb96 603c 9ed6 43bd aa88 a0bc
000003a0: c68b 3a3a ce34 f5bb 7952 78bc ec05 0a3c
000003b0: 24db a53b 018b 4cbb 0c05 423a beea 8dbc
000003c0: 9006 933d 9ecb c5bb 91e2 df3c 0f02 1e3d
000003d0: a569 bc3c fa0e 2e3d edcb abb9 48a5 8cbc
000003e0: 026e 323c 9195 0b3c e8c5 f03a f54d 633c
000003f0: 6c22 64bc 5ca5 083d 8ccf 76bc 47bc 38bc
0.012354688 0.0148916505 0.010147698 0.009861801 0.018030725 -0.030290559 -0.02253491 0.0058989897
0.0030754888 0.068756536 -0.019176234 -0.088549174 0.02177647 -0.033895906 -0.025226818 0.008024933
-0.004974002 0.031016769 -0.01504344 0.02139434 0.010118936 0.0007098338 -0.0045715547 -0.013602385
-0.010679896 0.005684965 0.026813451 -0.0020332518 0.010968308 -0.00051047676 0.046324052 -0.016217392
-0.024420151 -0.0032333396 -0.062064983 0.013187922 -0.0018590549 -0.016057879 0.017545585 0.0029309206
0.0012398232 0.05987572 0.0465902 0.017981526 0.012115325 -0.0027204202 0.009341335 0.018267049
0.003669954 0.015221611 -0.01750673 7.764058e-06 -0.018226538 0.0063511166 0.024124399 0.021153357
0.015269881 -0.04575949 0.030708266 -0.0012451762 0.008802695 -0.00017417369 0.04989284 0.0041860477
0.004941556 -0.013539434 -0.017097794 0.013181024 -0.014476657 -0.014358825 -0.01572637 0.01642353
0.016464382 -0.003085169 0.018190581 -0.0144845 -0.021784881 -0.013597785 0.0525517 -0.041749403
-0.016753577 0.013020429 -0.0053254613 -0.0037903963 0.013840576 -0.009862208 -0.044369955 0.011602692
0.0409703 0.008266127 -0.040828146 0.020120068 0.001543016 -0.016275762 0.009111534 -0.01520814
-0.033677384 -0.030245041 0.019400321 0.0075975102 -0.00879057 0.010858735 0.004458371 0.057783853
-0.0017433082 0.018613271 0.0077927476 -0.025911424 -0.036404375 0.0088196285 0.006864521 -0.0074915024
0.025765192 0.015168593 -0.0054113176 -0.0016826328 -0.007348054 0.017541593 -0.02950075 -0.015554648
0.01490013 0.007940361 0.010352429 -0.011493308 0.051190197 -0.009346694 -0.01189403 -0.0108328415
-0.0066006226 -0.0023133324 0.024646236 -0.008646136 0.022346495 0.0010779339 -0.017962372 -0.0120989885
0.011557327 0.008192526 -0.010231025 -0.022192951 -0.010696125 0.04559061 0.01997753 0.015652904
-0.027096698 0.02100884 0.023568474 0.005196762 -0.019561348 0.019466495 -0.061584536 0.018854374
0.042773563 -0.031694762 -0.0045550647 0.014789352 -0.013353283 -0.0003673294 -0.006232496 -0.024802908
0.022927472 -0.093331 0.012359731 0.021980038 0.0020374074 -0.019509828 0.015400247 0.02210858
0.008208246 0.031079262 0.024638852 0.011450763 -0.015045009 -0.018157512 -0.00803062 0.054801855
-0.07686485 -0.00794984 -0.025634509 0.024839127 0.007309218 -0.01123755 1.3730983e-05 -0.011051919
0.0057959715 -0.014444323 -0.001996425 0.0031138535 0.004122296 -0.06671672 0.03788579 0.044059534
0.0011210373 -0.020276027 0.0062555885 -0.010196817 0.017611558 0.010948294 0.0078076515 -0.024752246
0.012613706 0.04041352 0.0046553137 -0.013876777 0.013997884 -0.026997471 0.03130468 0.0037348012
0.008150695 -0.021014797 0.012879811 0.012138799 -0.009880554 -0.007947311 0.017238032 0.0150856525
-0.017251391 -0.011716793 0.014692961 0.014803113 -0.011712659 0.015239291 -0.030251594 -0.012232898
-0.017168991 0.08217188 -0.015551874 -0.028965909 -0.015176397 0.013707872 -0.047812097 -0.019596417
0.0007116165 -0.0074831014 -0.015156382 0.008424263 0.005061524 -0.0031210782 0.0007401265 -0.017323848
0.07178986 -0.006036236 0.027329715 0.038576182 0.022999594 0.04249475 -0.00032767598 -0.017168656
0.010890486 0.008519546 0.0018369528 0.013873567 -0.013924222 0.033360824 -0.0150641315 -0.011275358
