checkpoint.pt (torch_old, 323056 bytes, 15 tensors)

fc1.weight f4 [256, 24]
0.018216094 -0.0150512485 0.00025266586 -0.056831166 0.009122932 0.036438912 0.00047080152 -0.05313485
-0.00482809 -0.058548834 0.002423313 -0.05334957 -0.014841649 0.12798837 0.0054019014 -0.05079598
-0.045886885 -0.08468962 -8.340349e-05 -0.13389543 -0.025315847 0.21518211 0.0030560144 -0.13606343
-0.018059636 -0.020402774 -0.0012385271 -0.0122212 -0.046715163 -0.2790091 -0.00082970125 -0.016673384
-0.035159245 -0.062066417 0.0009085799 0.00899704 -0.02762104 -0.07343573 -0.0013675895 0.009479994
-0.03674803 -0.0865533 -0.00474404 -0.048734553 0.005926576 0.22507294 -0.0025737637 -0.050573736
0.026236547 -0.018703656 0.024963923 0.08860642 -0.11129655 -0.13304539 0.020991325 0.086016536
0.038606957 0.029894197 -0.010626873 0.069999136 -0.07898321 -0.08122089 -0.009706023 0.07095126
0.038654063 0.0012153927 0.040454935 -0.027260058 -0.061343547 0.033171598 0.04268137 -0.02365416
-0.013938767 -0.022001373 -0.00020956782 0.04015527 0.042623546 -0.22291993 0.00093381247 0.039821133
-0.021007778 -0.03715952 -0.000686561 0.014943926 -0.0025250206 -0.029124219 0.001158919 0.018392602
-0.020990454 -0.03677806 -3.5353027e-05 -0.01083302 -0.02137165 0.26941583 0.00459578 -0.0094142435
-0.020348119 -0.07299281 0.019481637 0.0053167716 -0.017715303 -0.019280395 0.014405996 0.0018494566
-0.0019853183 -0.052203927 -0.006352315 0.016263768 0.069957614 0.047414783 -0.005297109 0.019494817
0.007742041 -0.02023405 -0.010207404 0.056462217 0.16073418 0.17624919 -0.008352452 0.059738208
0.051404268 -0.2120552 -0.015352938 -0.064257644 0.0017849623 -0.017202975 -0.011598733 -0.06338272
0.059888612 -0.19687054 -0.0051371427 -0.006983331 -0.062110204 -0.07979352 -0.0018925122 -0.0057365415
0.026247695 -0.21736732 -0.004592608 0.0748159 -0.16331843 -0.093294635 -0.0041969963 0.073558465
0.11345923 -0.04430264 0.0026621365 0.04147686 0.025358371 -0.09789757 0.0039796247 0.045774646
0.13643992 -0.014552931 0.07277127 0.051658172 0.03682997 -0.062118385 0.07175154 0.052053515
0.106833845 -0.08893238 0.05459482 -0.13835797 0.01093174 0.024471425 0.054496247 -0.1368812
0.012994879 0.037366644 -0.0007485006 0.027591292 -0.17118894 0.020904692 0.00059123733 0.02539245
0.0003919222 0.06337715 0.0044779666 0.067406446 -0.063416064 -0.027216366 0.0051217237 0.06776677
0.004415037 0.07537455 0.003583687 0.02899777 0.027771106 -0.039595276 0.007257912 0.028062323
-0.0023929686 0.002647442 0.001317221 0.002111349 -0.00026659944 -0.0004630883 0.0014350133 0.0008938843
0.00088965707 0.00152152 -0.0007848626 -0.0018904398 0.0010157394 0.001820661 0.00018539779 -0.0007028097
0.002930482 -7.866658e-05 0.0013364002 0.00030421896 -0.0010455995 0.002778362 -0.0023923316 -0.0028768522
-0.0047890865 -0.09183846 -0.010959232 -0.025622265 0.06400521 -0.0619818 -0.011351626 -0.02477795
0.012610851 -0.0513763 0.00078962685 -0.026496569 0.13733058 -0.09344954 -0.0013833613 -0.029870877
0.023972055 -0.034640204 -0.012212356 -0.025284193 0.22447476 -0.04933068 -0.007558638 -0.026538033
0.020625917 -0.15943901 0.0003888511 -0.012696244 -0.10163772 -0.1329779 -0.0016453374 -0.010019202
0.024773074 -0.16209312 -0.0057390523 -0.04390256 0.058557644 -0.006989447 -0.007724486 -0.042871274
00000000: eb39 953c 8399 76bc 3d78 8439 ccc7 68bd
00000010: 5a78 153c f840 153d e9d5 f639 eea3 59bd
00000020: f434 9ebb e7d0 6fbd 72d0 1e3b 1485 5abd
00000030: 632a 73bc 620f 033e 6f02 b13b 720f 50bd
00000040: e3f3 3bbd c071 adbd e8e8 aeb8 e21b 09be
00000050: 2e63 cfbc b358 5c3e 6a47 483b 3654 0bbe
00000060: cdf1 93bc b823 a7bc 1356 a2ba 6e3b 48bc
00000070: 6658 3fbd 48da 8ebe 4f80 59ba 9f96 88bc
00000080: 2403 10bd 5b39 7ebd c42d 6e3a 5268 133c
00000090: 8545 e2bc 7965 96bd b040 b3ba fa51 1b3c
000000a0: 1a85 16bd db42 b1bd e473 9bbb e29d 47bd
000000b0: b933 c23b 8579 663e 97ac 28bb 6826 4fbd
000000c0: 07ee d63c 6938 99bc 2481 cc3c 4877 b53d
000000d0: 72ef e3bd 0d3d 08be 00f6 ab3c 7029 b03d
000000e0: 5422 1e3d ade4 f43c 561c 2ebc b55b 8f3d
000000f0: f3c1 a1bd 2357 a6bd 0306 1fbc e54e 913d
00000100: b953 1e3d d04d 9f3a 13b4 253d 7c50 dfbc
00000110: 5f43 7bbd f1de 073d a9d2 2e3d 5ec6 c1bc
00000120: 6d5f 64bc 393c b4bc 6fbf 5bb9 da79 243d
00000130: 0796 2e3d 1f45 64be 18cb 743a 7c1b 233d
00000140: 8118 acbc 9534 18bd 54fa 33ba 5ed7 743c
00000150: d17a 25bb ea95 eebc dee6 973a 15ac 963c
00000160: 2cf4 abbc 97a4 16bd 0648 14b8 fb7c 31bc
00000170: 9913 afbc dff0 893e 3298 963b 333e 1abc
00000180: 19b1 a6bc 417d 95bd f497 9f3c 5038 ae3b
00000190: af1f 91bc ebf1 9dbc 2007 6c3c 7769 f23a
000001a0: 1d1c 02bb c9d3 55bd 1527 d0bb 983b 853c
000001b0: f045 8f3d 0136 423d 5f93 adbb 98b3 9f3c
000001c0: f2b0 fd3b e1c1 a5bc f53c 27bc ed44 673d
000001d0: 8097 243e ab7a 343e b9d8 08bc 0db0 743d
000001e0: 488d 523d 0025 59be e48a 7bbc 8399 83bd
000001f0: 65f5 e93a 41ed 8cbc 9d08 3ebc cdce 81bd
00000200: c34d 753d 6e98 49be 7a55 a8bb 6dd4 e4bb
00000210: 4567 7ebd c96a a3bd 2c0e f8ba 99f9 bbbb
00000220: 6805 d73c 8a95 5ebe 977d 96bb 1439 993d
00000230: f23c 27be 4211 bfbd f586 89bb d2a5 963d
00000240: 505d e83d af76 35bd 3d77 2e3b a4e3 293d
00000250: 5cbc cf3c 857e c8bd 8367 823b 327e 3b3d
00000260: e8b6 0b3e 6b6f 6ebc 1b09 953d 8597 533d
00000270: 06db 163d d96f 7ebd 79f2 923d 1136 553d
00000280: b4cb da3d 2e22 b6bd d19e 5f3d b6ad 0dbe
00000290: 0a1b 333c 4c78 c83c 7537 5f3d 962a 0cbe
000002a0: 79e8 543c c40d 193d 0637 44ba 2207 e23c
000002b0: 274c 2fbe 5140 ab3c 44fd 1a3a d403 d03c
000002c0: e87a cd39 e1cb 813d e8bb 923b 640c 8a3d
000002d0: 48e0 81bd dbf4 debc 22d4 a73b 4ec9 8a3d
000002e0: 04ac 903b f95d 9a3d 4adc 6a3b bb8c ed3c
000002f0: 3b80 e33c a82e 22bd c7d3 ed3b f5e2 e53c
00000300: 5ad3 1cbb b580 2d3b 9aa6 ac3a 8f5e 0a3b
00000310: 5fc6 8bb9 a9ca f2b9 0e17 bc3a 8f53 6a3a
00000320: e037 693a bd6d c73a 3dbf 4dba a2c8 f7ba
00000330: 8f22 853a 3fa3 ee3a 5767 4239 c33c 38ba
00000340: 540d 403b ccf9 a4b8 262a af3a 947f 9f39
00000350: 7f0c 89ba 2e15 363b aac8 1cbb 9289 3cbb
00000360: c5ed 9cbb cd15 bcbd 5a8e 33bc c9e5 d1bc
00000370: 2a15 833d a1e0 7dbd 2cfc 39bc 21fb cabc
00000380: be9d 4e3c f56f 52bd f6fe 4e3a 550f d9bc
00000390: 63a0 0c3e 7962 bfbd e751 b5ba c5b3 f4bc
000003a0: 0b61 c43c e3e2 0dbd 5516 48bc cc20 cfbc
000003b0: b6dc 653e f80e 4abd 74ae f7bb 4a66 d9bc
000003c0: aff7 a83c fb43 23be b6de cb39 e803 50bc
000003d0: 7027 d0bd 5c2b 08be 5da8 d7ba 9427 24bc
000003e0: e7f0 ca3c bdfb 25be a90e bcbb 2cd3 33bd
000003f0: 24da 6f3d bb07 e5bb af1d fdbb ca99 2fbd

fc1.bias f4 [256]
-0.083067715 0.0687748 0.08630225 0.001111258 -0.040731486 -0.16572404 -0.088651694 0.017998736
-0.19754842 -0.17801908 0.09139561 0.07793133 -0.0005664796 -0.16077328 0.13206653 0.08194645
-0.026890825 0.12283189 -0.09479329 -0.04820366 0.17135294 -0.18295403 -0.07563306 -0.16356163
-0.066489115 -0.2000189 -0.05584764 0.022403954 -0.20741595 0.01659325 -0.06988549 -0.05945774
-0.02972649 -0.04117748 -0.11744678 0.044188417 -0.1467655 0.22095619 -0.19646974 0.099282146
-0.13974519 -0.2112911 0.09634433 -0.07545418 0.058243953 -0.12029278 0.024392555 -0.22675252
0.29563928 -0.0072427993 -0.13930859 0.14224094 0.020971127 -0.16674946 -0.027557464 -0.10258082
0.064423814 0.058784485 -0.23929359 0.10837108 -0.035161465 0.16472062 0.07725768 -0.22600117
0.05563466 0.013769531 -0.19340692 0.01925898 -0.19115672 -0.23809102 -0.030447194 -0.19132894
-0.18381114 -0.011830857 0.018059293 0.16208896 0.029397953 0.12026785 -0.022059994 -0.10807818
0.012387461 0.007938997 -0.18286541 -0.18644477 0.085040964 -0.12921332 -0.08401247 0.06809273
-0.15432347 0.004681966 0.0361312 0.16136633 -0.057033416 0.13231304 -0.12585676 -0.15805781
0.1474448 -0.13790593 0.10550509 0.059383094 0.11042537 -0.055871114 -0.06854431 0.0069220876
-0.22477327 0.06376977 0.06328415 0.1289295 0.023239352 -0.09377784 -0.0119013535 -0.15734398
0.088137925 -0.19971484 -0.21112995 0.1334342 0.18883626 -0.18681878 -0.16968694 0.08876206
-0.053010687 0.13123704 0.03408717 0.29295066 0.10376386 0.09726663 0.03219542 0.039394245
0.08515815 -0.19201167 -0.20347859 0.028768718 -0.07938198 -0.0021713192 0.09404558 0.1387336
0.022018302 0.0744164 0.07345679 0.09402643 -0.011602431 -0.11451444 0.13446984 -0.16427684
0.18514009 -0.20452154 -0.06654802 -0.18039657 -0.10338823 0.19794205 0.016734887 0.20452844
0.1033295 -0.16888775 0.33236098 -0.065936275 0.21890649 -0.037451908 -0.009062021 0.14851853
-0.03844922 0.22893308 -0.046729326 0.09945812 -0.05489744 0.10833554 0.0096655805 -0.0034019114
-0.004640044 0.15413861 0.030105883 -0.20348409 -0.1692239 -0.19284993 -0.0995135 -0.16983297
0.13207419 0.1581202 -0.109187774 0.016133247 -0.09175731 0.08760262 0.028345576 0.024240388
0.16898821 -0.20449609 -0.24990104 -0.14814128 -0.02292929 0.199809 -0.052773748 -0.0076331394
-0.08647327 -0.0747775 0.24763581 -0.054798584 -0.12835665 0.10689776 0.3236455 0.057300843
0.03711394 0.092378125 0.0038704993 -0.057300907 0.14792156 0.3222472 -0.123902865 0.23292494
-0.15814953 -0.14807355 -0.07542389 0.0013480341 0.28161085 -0.07501442 -0.07814474 -0.12420432
0.08590366 0.047280744 0.08448535 0.023443427 -0.068516344 -0.038106788 0.18636574 0.05125412
-0.01613051 -0.19447711 9.80193e-05 -0.115524076 0.057337422 -0.104068585 0.14257137 0.113825165
0.045237023 -0.10714123 0.19652908 0.08342916 -0.1149031 0.099326864 0.06853436 0.008018348
0.037717868 -0.13184842 0.089777365 -0.0053900564 0.082348146 0.026588848 -0.06386771 -0.12202863
0.08786769 -0.046424825 -0.09551198 -0.18945904 -0.032720674 0.164863 -0.26220682 0.31034642
00000000: 681f aabd cdd9 8c3d 3cbf b03d a2a7 913a
00000010: 0fd6 26bd 90b3 29be 058f b5bd 1672 933c
00000020: 224a 4abe a24a 36be 9f2d bb3d 769a 9f3d
00000030: cd7f 14ba c0a1 24be 733c 073e 8ad3 a73d
00000040: 264a dcbc 498f fb3d fc22 c2bd 3371 45bd
00000050: 2577 2f3e 4d58 3bbe 81e5 9abd b37c 27be
00000060: 722b 88bd c1d1 4cbe 7fc0 64bd 7f88 b73c
00000070: d964 54be 91ee 873c 2020 8fbd f689 73bd
00000080: f884 f3bc b8a9 28bd f087 f0bd eafe 343d
00000090: b249 16be 5742 623e 5d2f 49be 7054 cb3d
000000a0: 5d19 0fbe b25c 58be 2d50 c53d b987 9abd
000000b0: 3691 6e3d 105c f6bd e5d2 c73c d031 68be
000000c0: 085e 973e 0155 edbb e9a6 0ebe 9ca7 113e
000000d0: a4cb ab3c 5fc0 2abe 31c0 e1bc e515 d2bd
000000e0: a2f0 833d 00c8 703d 6109 75be a8f1 dd3d
000000f0: 7805 10bd 86ac 283e 4639 9e3d da6c 67be
00000100: 2be1 633d 9999 613c 770c 46be 02c5 9d3c
00000110: 96be 43be 22ce 73be 656c f9bc bceb 43be
00000120: fd38 3cbe 36d6 41bc 15f1 933c a6fa 253e
00000130: fad3 f03c fe4e f63d 29b7 b4bc 1858 ddbd
00000140: c7f4 4a3c 9112 023c 1241 3bbe 61eb 3ebe
00000150: f529 ae3d 7f50 04be bb0e acbd 3474 8b3d
00000160: f906 1ebe 2d6b 993b 4ffe 133d 373d 253e
00000170: df9b 69bd 127d 073e 98e0 00be e8d9 21be
00000180: c5fb 163e 3637 0dbe 0d13 d83d b03b 733d
00000190: b226 e23d 1cd9 64bd f660 8cbd aed2 e23b
000001a0: f72a 66be ba99 823d 1f9b 813d 1806 043e
000001b0: 7460 be3c 990e c0bd e5fd 42bc c81e 21be
000001c0: a881 b43d 0c82 4cbe 7332 58be faa2 083e
000001d0: 4b5e 413e 6c4d 3fbe 6ac2 2dbe e2c8 b53d
000001e0: bc21 59bd 0163 063e fd9e 0b3d a1fd 953e
000001f0: 2682 d43d ba33 c73d 58df 033d dc5b 213d
00000200: 6567 ae3d b59e 44be b15c 50be 60ac eb3c
00000210: 0593 a2bd b14c 0ebb f89a c03d 2e10 0e3e
00000220: ba5f b43c a067 983d 8370 963d ee90 c03d
00000230: 1f18 3ebc 8c86 eabd 76b2 093e 3038 28be
00000240: 5d95 3d3e 186e 51be 544a 88bd e1b9 38be
00000250: 35bd d3bd 52b1 4a3e 9a17 893c e76f 513e
00000260: 6b9e d33d e9f0 2cbe 382b aa3e 9909 87bd
00000270: 0629 603e 2c67 19bd df78 14bc 3e15 183e
00000280: ee7c 1dbd 6f6d 6a3e 4067 3fbd b3b0 cb3d
00000290: 23dc 60bd 06df dd3d 625c 1e3c 9af2 5ebb
000002a0: 830b 98bb 83d6 1d3e 9da0 f63c 225e 50be
000002b0: 0849 2dbe 747a 45be bccd cbbd b2e8 2dbe
000002c0: 753e 073e 43ea 213e d79d dfbd df29 843c
000002d0: 42eb bbbd 0169 b33d fb34 e83c c793 c63c
000002e0: 3f0b 2d3e 6c67 51be 0fe6 7fbe 59b2 17be
000002f0: 35d6 bbbc bb9a 4c3e 4929 58bd 6a1f fabb
00000300: e618 b1bd f224 99bd 3e94 7d3e 7b74 60bd
00000310: ed6f 03be 36ed da3d ddb4 a53e 4ab4 6a3d
00000320: c904 183d be30 bd3d 34a8 7d3b 5bb4 6abd
00000330: c078 173e 96fd a43e c9c0 fdbd e083 6e3e
00000340: f3f1 21be 98a0 17be d777 9abd 85b0 b03a
00000350: 4c2f 903e 29a1 99bd 590a a0bd d65e febd
00000360: 42ee af3d 74a9 413d a806 ad3d 6e0c c03c
00000370: 4c52 8cbd dd15 1cbd a9d6 3e3e d7ef 513d
00000380: 2224 84bc 0225 47be b68f cd38 e397 ecbd
00000390: a5da 6a3d e921 d5bd 3bfe 113e 2b1d e93d
000003a0: 754a 393d dc6c dbbd eb3e 493e e8dc aa3d
000003b0: 5152 ebbd e26b cb3d be5b 8c3d 645f 033c
000003c0: 0d7e 1a3d 4603 07be 32dd b73d 129f b0bb
000003d0: 25a6 a83d dbd0 d93c 13cd 82bd 25ea f9bd
000003e0: faf3 b33d f527 3ebd c99b c3bd 8d01 42be
000003f0: 1d06 06bd d9d1 283e f93f 86be bae5 9e3e

fc2.weight f4 [128, 256]
0.043847606 -0.11374046 -0.08731647 0.03143289 0.024147999 -0.089628704 -0.038878437 -0.21649203
-0.0006483319 0.07006515 -0.00880897 0.13732395 -0.21572837 -0.0022771284 -0.18648174 0.08353525
-0.27900353 -0.036097962 0.15218474 -0.03353229 -0.14713262 0.0027054916 -0.053103678 0.0005946022
-0.04506831 -0.0019748812 -0.134323 0.09938175 0.15930447 -0.005115861 -0.045125913 -0.16961825
-0.046685025 -0.029391896 0.0025011576 -0.15487397 -0.042264093 0.117877245 0.05163862 0.031936985
9.5478965e-05 0.0017490179 -0.030530518 -0.058308575 -0.11924623 0.04703569 -0.019651 -0.095452085
-0.087472506 -0.029748542 -0.17141932 0.022417387 -0.023215134 -0.0018239097 -0.02426012 0.010680208
-0.0136422645 -0.001560865 0.006044117 0.09080833 -0.0019572424 -0.01713015 -0.014903901 0.097198956
-0.11495302 -0.14230448 0.069275215 -0.1177165 -0.0022643614 -0.08807621 0.033644672 -0.0024012004
-0.0020952276 0.0056714835 -0.028165106 -0.0079036765 0.05374358 0.05499661 -0.116662435 0.087071985
0.039221004 -0.03802234 -0.0010400794 0.0020859898 0.01994989 -0.002963298 -0.12866624 0.035636492
-0.03244695 -0.21818073 -0.009045865 -0.03477113 -0.040259354 -0.0051205023 -0.17494342 -0.0661071
0.077594355 -0.002536635 0.0742827 -0.04653616 -0.09687215 -0.12028219 0.015792556 0.007973913
0.06658931 0.00050751894 -0.051334605 0.13676244 -0.08444691 -0.033150915 -0.03583573 -0.0014360651
-0.045434423 0.03637157 0.022345137 -0.15578486 -0.2201992 0.0021714005 -0.0023683552 -0.15271544
-0.06743704 0.086514264 -0.0464511 -0.100647576 0.089381084 0.080405846 -0.07323216 -0.03388743
-0.036908194 0.0027413014 -0.0045502894 0.014206337 0.03554715 0.049223058 0.11388175 -0.34639752
0.047852788 -0.0145552205 0.05783796 0.014179489 -0.12078597 0.062060867 -0.09397541 0.009858684
-0.044119496 -0.109265506 -0.15411443 -0.053550094 -0.007526537 0.057886988 -0.043355912 -0.2735029
0.052744694 -0.21998282 -0.041783523 0.042477984 -0.11614668 -0.16650489 0.0014779633 0.063803636
-0.014208951 -0.052971777 -0.08969769 -0.060959574 -0.020979717 0.06202985 0.07231625 -0.016338458
0.03631958 -0.035294563 0.0736005 -0.0016973115 -0.0028878443 -0.0008033556 0.12173686 -0.0018270654
-0.19976428 -0.079042196 0.033939064 0.0035903081 -0.007388235 -0.033170044 -0.03778128 -0.0098338965
0.052315414 -0.080290586 -0.013580423 -0.096319474 -0.1300623 -0.087197125 -0.021845492 -0.06544909
-0.198878 0.10725659 0.02372502 -0.1673026 -0.06794096 -0.0032981103 -0.07968707 -0.012146095
-0.014225887 -0.06952987 -0.18578956 -0.09689584 0.063129574 0.089321025 -0.0559274 -0.028126147
-0.0068612657 0.0019109207 0.003281276 -0.18438819 -0.092376925 -0.08578734 0.080782 -0.18832055
0.012430617 0.068786316 -0.16645575 -0.03865458 -0.00085705024 0.05256241 0.023768011 -0.023015449
0.01832229 -0.0010773053 -0.17478228 0.1701982 -0.050479576 -0.08958968 0.049175702 -0.1690288
0.013509432 -0.16005172 -0.07756022 -0.069861315 0.056396626 0.01110159 0.02545764 -0.14328508
0.0064998325 -0.002181732 -0.027997265 -0.19894338 -0.04880573 0.046209253 -0.036766537 0.1086133
-0.041419514 -0.043232236 -0.1837035 -0.021140946 -0.03315186 0.14414078 -0.0016445478 -0.063077785
00000000: 8c99 333d c2f0 e8bd fad2 b2bd c6bf 003d
00000010: 06d2 c53c 418f b7bd ff3e 1fbd 16b0 5dbe
00000020: d1f4 29ba 517e 8f3d 8053 10bc a69e 0c3e
00000030: e6e7 5cbe e03b 15bb 12f5 3ebe 8714 ab3d
00000040: 8dd9 8ebe 75db 13bd 51d6 1b3e 2859 09bd
00000050: efa9 16be 9e4e 313b 3e83 59bd 14df 1b3a
00000060: 8c99 38bd 026d 01bb f88b 09be a988 cb3d
00000070: b620 233e f4a2 a7bb f3d5 38bd 68b0 2dbe
00000080: cc38 3fbd 46c7 f0bc 76ea 233b 4897 1ebe
00000090: 1d1d 2dbd a069 f13d 0583 533d 5bd0 023d
000000a0: e13b c838 4d3f e53a 231b fabc f9d4 6ebd
000000b0: 5e37 f4bd 7fa8 403d 22fb a0bc 627c c3bd
000000c0: c924 b3bd 37b3 f3bc 8c88 2fbe aba4 b73c
000000d0: aa2d bebc 4110 efba 29bd c6bc 0afc 2e3c
000000e0: ce83 5fbc f095 ccba ba0d c63b b8f9 b93d
000000f0: 1445 00bb 8754 8cbc 7e2f 74bc 3f10 c73d
00000100: 7d6c ebbd 44b8 11be 2ae0 8d3d 5915 f1bd
00000110: ae65 14bb 4d61 b4bd ffce 093d 755d 1dbb
00000120: 1650 09bb dad7 b93b 82ba e6bc 6c7e 01bc
00000130: 3a22 5c3d 2044 613d b7ec eebd cc52 b23d
00000140: 34a6 203d 50bd 1bbd 4653 88ba 1ab5 083b
00000150: f46d a33c e433 42bb 15c1 03be 92f7 113d
00000160: 18e7 04bd c56a 5fbe 1c35 14bc 2c6c 0ebd
00000170: fee6 24bd e3c9 a7bb 5e24 33be 2963 87bd
00000180: cae9 9e3d ac3d 26bb 8721 983d b39c 3ebd
00000190: e864 c6bd 8256 f6bd 645f 813c 04a5 023c
000001a0: fa5f 883d 050b 053a 3c44 52bd 740b 0c3e
000001b0: 80f2 acbd 41c9 07bd 7dc8 12bd 593a bcba
000001c0: 7219 3abd 5bfa 143d 260d b73c 1186 1fbe
000001d0: e67b 61be 0e4e 0e3b 6836 1bbb 7061 1cbe
000001e0: 6e1c 8abd 642e b13d 8243 3ebd 5120 cebd
000001f0: 6e0d b73d d2ab a43d befa 95bd 8ccd 0abd
00000200: 0c2d 17bd 68a7 333b 981a 95bb b2c1 683c
00000210: e399 113d 1e9e 493d d63a e93d 045b b1be
00000220: 4901 443d 0579 6ebc 7fe7 6c3d 1651 683c
00000230: a25e f7bd 8933 7e3d 2e76 c0bd 5186 213c
00000240: a5b6 34bd 98c6 dfbd 2cd0 1dbe 5857 5bbd
00000250: 2ba1 f6bb e81a 6d3d f895 31bd 9208 8cbe
00000260: d20a 583d 2d43 61be 3325 2bbd 65fd 2d3d
00000270: 50de edbd 4280 2abe 38b8 c13a 7bab 823d
00000280: a9cc 68bc eff8 58bd 6cb3 b7bd bfb0 79bd
00000290: a8dd abbc 0313 7e3d 8b1a 943d 3bd8 85bc
000002a0: d7c3 143d 0891 10bd dcbb 963d 5378 deba
000002b0: fd41 3dbb 4898 52ba 2d51 f93d 247a efba
000002c0: 028f 4cbe e0e0 a1bd b003 0b3d 604b 6b3b
000002d0: 0219 f2bb 50dd 07bd 8bc0 1abd 5a1e 21bc
000002e0: b048 563d 646f a4bd 6c80 5ebc 2543 c5bd
000002f0: 0d2f 05be 6894 b2bd 51f5 b2bc 2c0a 86bd
00000300: ada6 4bbe 58a9 db3d f95a c23c 5f51 2bbe
00000310: a124 8bbd 1c25 58bb f932 a3bd 6a00 47bc
00000320: b213 69bc ad65 8ebd 9e3f 3ebe 5371 c6bd
00000330: 144a 813d f1ed b63d 2114 65bd ce68 e6bc
00000340: 78d4 e0bb dc77 fa3a ad0a 573b 42d0 3cbe
00000350: 1d30 bdbd 46b1 afbd 0971 a53d 1ad7 40be
00000360: c9a9 4b3c d7df 8c3d 6073 2abe 4454 1ebd
00000370: abab 60ba ae4b 573d 22b5 c23c e58a bcbc
00000380: a118 963c 5e34 8dba 20fa 32be 7048 2e3e
00000390: acc3 4ebd cb7a b7bd 766c 493d e315 2dbe
000003a0: aa56 5d3c 99e4 23be e5d7 9ebd 7313 8fbd
000003b0: 2600 673d 71e3 353c 8a8c d03c 53b9 12be
000003c0: 8cfc d43b 64fb 0ebb 855a e5bc d0b7 4bbe
000003d0: 84e8 47bd ea45 3d3d 8298 16bd a670 de3d
000003e0: 82a7 29bd 4914 31bd c51c 3cbe c72f adbc
000003f0: 3fca 07bd a499 133e de8d d7ba ed2e 81bd

fc2.bias f4 [128]
0.08367397 0.014771385 0.012260194 -0.006492957 -0.01691084 -0.011309734 0.13034888 -0.037144158
-0.09527136 0.13681187 -0.0037498313 0.10265954 -0.039234743 -0.04221078 0.03352913 0.031421937
-0.05652225 -0.044773407 -0.18352072 0.10090167 -0.05891911 0.017602101 0.09611507 -0.040684946
0.05012689 -0.064300805 -0.042558208 0.0938876 0.043326084 -0.076213494 0.040403336 0.070767745
-0.05611491 -0.048243262 -0.06431651 -0.01916079 0.023932928 -0.01402572 0.11918897 -0.027054153
-0.07544146 0.13399768 0.13891347 0.028870028 0.035700984 -0.020631727 0.0008922074 0.08464827
-0.07250493 -0.040707607 0.059766494 -0.02029877 -0.032321345 0.037147082 -0.022309855 0.1813194
0.022020701 0.04299712 -0.014448469 0.12110842 0.026070459 0.0058548693 0.04934426 -0.004362085
0.17699721 0.051046036 0.012487835 0.08117949 -0.10987692 -0.0037478302 0.17361575 -0.055924118
0.032741472 -0.0012287245 -0.047973044 -0.022805473 -0.05589266 0.008793959 -0.1278649 -0.05645967
-0.019708857 -0.020714007 0.11375848 -0.056699578 0.07690583 0.11050244 0.010094492 -0.051375926
-0.04210001 -0.04450165 0.13619217 0.058710273 0.0450949 0.021805914 -0.07184655 0.04276366
-0.01824266 0.14031239 0.12074214 -0.04323883 0.14536946 -0.053056065 -0.0356697 0.15210512
0.066294506 -0.03931808 0.031229092 0.074644335 -0.03978094 0.11772744 -0.027381167 -0.13491024
-0.046796944 0.052175358 -0.011531034 0.0022566088 0.10468217 0.014545438 0.07534174 0.0046264324
0.05878745 0.1857354 0.024505913 0.10240377 0.030702071 0.0828473 0.21638572 -0.024075259
00000000: 425d ab3d ae03 723c fbde 483c dfc2 d4bb
00000010: 9a88 8abc 764c 39bc 2d7a 053e 7924 18bd
00000020: a11d c3bd 6918 0c3e bbbf 75bb 2a3f d23d
00000030: 9cb4 20bd 36e5 2cbd d755 093d 4ab4 003d
00000040: e083 67bd 5264 37bd dbec 3bbe 89a5 ce3d
00000050: 2a55 71bd 4832 903c fad7 c43d 42a5 26bd
00000060: db51 4d3d 24b0 83bd 8451 2ebd 2448 c03d
00000070: b176 313d d215 9cbd f87d 253d aeee 903d
00000080: bfd8 65bd ba9a 45bd 60b8 83bd 17f7 9cbc
00000090: fd0e c43c 22cc 65bc 5919 f43d aca0 ddbc
000000a0: 0d81 9abd b036 093e 553f 0e3e d680 ec3c
000000b0: 323b 123d de03 a9bc 06e3 693a 125c ad3d
000000c0: 777d 94bd 05bd 26bd b6cd 743d 9b49 a6bc
000000d0: 6363 04bd 8a27 183d 28c3 b6bc cbab 393e
000000e0: c264 b43c c01d 303d 45b9 6cbc b107 f83d
000000f0: b791 d53c 34da bf3b 351d 4a3d d2ef 8ebb
00000100: c23e 353e a615 513d c799 4c3c 6f41 a63d
00000110: 2707 e1bd 289e 75bb 54c8 313e b010 65bd
00000120: ec1b 063d 270d a1ba 627f 44bd 8bd2 babc
00000130: b4ef 64bd 8a14 103c 04ef 02be 4142 67bd
00000140: 7874 a1bc 6cb0 a9bc 35fa e83d d13d 68bd
00000150: ce80 9d3d 1a4f e23d 5e63 253c 906f 52bd
00000160: 0f71 2cbd 5d47 36bd f675 0b3e 2f7a 703d
00000170: 6eb5 383d 51a2 b23c 4924 93bd f328 2f3d
00000180: a271 95bc 0dae 0f3e a847 f73d 331b 31bd
00000190: bbdb 143e 5151 59bd 641a 12bd 72c1 1b3e
000001a0: 6ac5 873d ff0b 21bd 27d4 ff3c 21df 983d
000001b0: 57f1 22bd 161b f13d 784e e0bc e925 0abe
000001c0: 27ae 3fbd d4b5 553d a9ec 3cbc 9de3 133b
000001d0: 9b63 d63d fd4f 6e3c c54c 9a3d 5499 973b
000001e0: 1ccb 703d 6c31 3e3e a0c0 c83c 11b9 d13d
000001f0: e982 fb3c d8ab a93d 3894 5d3e 7a39 c5bc

fc3.weight f4 [2, 128]
0.15244846 0.07479942 -0.08473974 -0.03066222 -0.22272551 0.1219702 0.055239398 -0.05470816
0.42062005 0.023511305 0.15588492 0.054625105 -0.0026646457 0.060004313 0.09118774 0.032622505
-0.00041776613 -0.22579657 0.17174737 0.17746115 -0.025375877 0.032827586 0.0941205 -0.17539221
0.06697036 0.2613398 -0.068003215 -0.036015283 -0.093687765 0.14359647 -0.028354386 -0.051498406
-0.0028208334 0.059470467 -0.00222773 4.7634043e-05 0.13048577 -0.21967843 -0.053258743 -0.06594961
0.4055492 -0.025479017 -0.02902595 0.044870064 0.110447645 -0.091197334 -0.05655177 -0.10955789
-0.21309873 0.0024316555 0.11420887 0.002412175 -0.0051240763 -0.17134342 -0.002125688 0.032358084
0.11350281 -0.13792698 -0.0008336372 0.010239071 0.17762181 0.09568908 0.19746418 -0.14256564
0.030165045 0.19159506 0.1215993 0.12261542 0.114702985 0.071502246 0.038271975 0.0011009756
-0.30920956 -0.11244509 -0.15393357 -0.19991493 -0.0028426056 -0.1520803 0.1177785 -0.0020212703
-0.02613613 -0.0020010173 0.12642244 0.052026156 -0.00090190157 -0.016775548 -0.06898202 -0.0030305209
0.14207484 -0.0021370566 -0.042325452 0.048602372 0.041057236 -0.057585645 0.1518952 -0.08894823
0.30019695 -0.020368624 0.061733015 0.10289468 -0.044966206 0.17892255 -0.0014197546 0.018481428
0.33891037 0.04078307 0.19991994 0.13678427 -0.19819249 -0.0059797675 -0.08526644 0.057587832
-0.17523277 -0.14774007 0.11393444 -0.07145312 -0.050957393 -0.078567125 -0.020541135 0.034515068
0.08007225 0.11566488 0.13111708 0.10494771 0.07226405 -0.13789603 0.0134606445 -0.0014057986
0.13080549 -0.118892714 0.1318535 0.06366041 0.06688057 -0.16417755 -0.4680075 0.023845645
0.062957555 -0.25047514 -0.036845434 -0.36263976 0.0017202359 0.06397668 -0.13387683 -0.007345734
0.0026460132 -0.055649094 -0.027888652 -0.23228955 0.05323253 0.02305444 -0.2335471 0.06738495
-0.17251869 -0.014610666 0.10821173 -0.4251347 -0.19562814 -0.13191491 -0.25951996 -0.4718971
-0.0010907883 0.06455534 0.001297753 0.0021948754 -0.11581301 -0.19956554 -0.1532113 0.059002284
-0.0882566 -0.2757438 -0.22442918 -0.08420358 -0.11767447 0.26211557 0.0058004265 -0.0054482426
0.14922866 -0.0016340301 -0.14643261 -0.0007286966 0.01749369 -0.07004358 -0.00054575526 -0.22785252
0.1768119 0.0702223 0.0059250505 -0.19037136 0.03539207 -0.16582827 -0.11286873 -0.08039507
-0.46174622 0.030079152 -0.13949095 -0.13075311 0.08606131 -0.3125802 -0.5596575 0.000630531
-0.12617503 0.03148652 0.01389133 0.005556807 0.00010998809 -0.032114718 -0.2959079 0.0014341526
0.061171055 -0.0020732675 -0.17487434 0.044581663 -0.28460252 -0.2833465 0.061133392 -0.0060422933
-0.039092284 -0.00018310543 -0.19871882 -0.13749845 0.0028792517 0.035729136 -0.043006048 -0.21656516
-0.15989946 -0.06537019 0.10350755 0.13933846 -0.23933521 -0.03751723 0.0013257195 -0.11446385
-0.16615014 0.022160199 0.005771635 -0.006481059 0.07897606 -0.12377568 -0.0021169395 0.24373624
0.07277262 0.08573653 -0.107407 -0.14003752 -0.066695035 0.10520711 -0.01409527 0.031111145
-0.044456936 -0.0002958016 0.13124503 -0.16549331 -0.0622204 -0.22086473 -0.33920896 -0.0006512552
00000000: 731b 1c3e 7030 993d 078c adbd 562f fbbc
00000010: 2812 64be 83cb f93d b542 623d aa15 60bd
00000020: 835b d73e c89a c03c 4ca0 1f3e 93be 5f3d
00000030: 56a1 2ebb 15c7 753d a3c0 ba3d 2d9f 053d
00000040: 9f07 dbb9 3737 67be 8bde 2f3e 60b8 353e
00000050: 12e1 cfbc 3876 063d 40c2 c03d 049a 33be
00000060: c227 893d 55ce 853e 4545 8bbd c384 13bd
00000070: 5fdf bfbd f40a 133e 7547 e8bc feef 52bd
00000080: bbdd 38bb 4e97 733d 1bff 11bb aaca 4738
00000090: 109e 053e 62f3 60be d725 5abd 9710 87bd
000000a0: 25a4 cf3e 5fb9 d0bc d4c7 edbc acc9 373d
000000b0: 6032 e23d abc5 babd d4a2 67bd e35f e0bd
000000c0: 8e36 5abe 695c 1f3b 57e6 e93d 9515 1e3b
000000d0: dee7 a7bb a674 2fbe 204f 0bbb e989 043d
000000e0: 2974 e83d bb3c 0dbe 7288 5aba c7c1 273c
000000f0: 7ee2 353e a3f8 c33d 0d34 4a3e bafc 11be
00000100: af1c f73c 7f31 443e 0e09 f93d cb1d fb3d
00000110: 66e9 ea3d c56f 923d 13c3 1c3d 9c4e 903a
00000120: b750 9ebe 9d49 e6bd c3a0 1dbe 80b6 4cbe
00000130: 024b 3abb f0ba 1bbe db35 f13d 4a77 04bb
00000140: 701b d6bc 8023 03bb e274 013e 6119 553d
00000150: 976d 6cba e06c 89bc 7246 8dbd b49b 46bb
00000160: 117c 113e dc0d 0cbb 745d 2dbd 4813 473d
00000170: a22b 283d edde 6bbd 6a8a 1b3e 7d2a b6bd
00000180: 6ab3 993e 1adc a6bc c2db 7c3d 72ba d23d
00000190: 7c2e 38bd 7937 373e 0f17 baba 5d66 973c
000001a0: a985 ad3e 260c 273d d0b7 4c3e 2d11 0c3e
000001b0: f9f2 4abe edf1 c3bb 2ca0 aebd 38e1 6b3d
000001c0: 3870 33be 2c49 17be 7656 e93d 0356 92bd
000001d0: b3b8 50bd cde7 a0bd e245 a8bc ac5f 0d3d
000001e0: ebfc a33d b5e1 ec3d 8e43 063e d3ee d63d
000001f0: 2dff 933d 9e34 0dbe 098a 5c3c c642 b8ba
00000200: e0f1 053e 067e f3bd 9b04 073e 6460 823d
00000210: aef8 883d 291e 28be ae9e efbe f157 c33c
00000220: e4ef 803d 473e 80be 3deb 16bd ebab b9be
00000230: 8a79 e13a 3506 833d 0217 09be 7cb4 f0bb
00000240: bc68 2d3b 4ef0 63bd be76 e4bc 50dd 6dbe
00000250: 5a0a 5a3d aadc bc3c f926 6fbe 1f01 8a3d
00000260: bda8 30be 9361 6fbc 1d9e dd3d 41ab d9be
00000270: be52 48be b414 07be cddf 84be 7f9c f1be
00000280: c8f8 8eba 9735 843d 5d19 aa3a e6d7 0f3b
00000290: 5f2f edbd e95a 4cbe 6ce3 1cbe 61ac 713d
000002a0: e0bf b4bd 4b2e 8dbe c3d0 65be ed72 acbd
000002b0: 50ff f0bd 0334 863e 8111 be3b 2c87 b2bb
000002c0: 66cf 183e f42c d6ba 6ef2 15be 0006 3fba
000002d0: ed4e 8f3c 0273 8fbd 0411 0fba 2c52 69be
000002e0: 2e0e 353e b6d0 8f3d ed26 c23b b6f0 42be
000002f0: 46f7 103d e3ce 29be b927 e7bd 2ca6 a4bd
00000300: 006a ecbe 8e68 f63c b7d6 0ebe 25e4 05be
00000310: e940 b03d 830a a0be b745 0fbf 384a 253a
00000320: 0734 01be 02f8 003d 7698 633c e015 b63b
00000330: 68a9 e638 b98a 03bd 3e81 97be 2dfa bb3a
00000340: 808e 7a3d a8df 07bb 4212 33be 439b 363d
00000350: 6cb7 91be cb12 91be 0267 7a3d 6efe c5bb
00000360: 3b1f 20bd fdff 3fb9 f27c 4bbe 65cc 0cbe
00000370: d4b1 3c3b b758 123d 1c27 30bd 42c3 5dbe
00000380: afbc 23be cee0 85bd c4fb d33d beae 0e3e
00000390: 4a14 75be abab 19bd c4c3 ad3a 066c eabd
000003a0: 4323 2abe 4e89 b53c fc1f bd3b 105f d4bb
000003b0: 33be a13d 1b7e fdbd 5abc 0abb fe95 793e
000003c0: d009 953d a296 af3d 34f8 dbbd ff65 0fbe
000003d0: 6897 88bd d376 d73d d9ef 66bc cddc fe3c
000003e0: 7a18 36bd d215 9bb9 1965 063e 1477 29be
000003f0: d1da 7ebd 5d2a 62be ccac adbe ffb8 2aba

fc3.bias f4 [2]
-0.014828713 -0.077112734
00000000: 21f4 72bc 48ed 9dbd

fc1.weight f4 [256, 24]
0.015087444 -0.026590958 -0.0041435426 -0.017050747 0.01862797 0.04311008 -0.0018302572 -0.022096535
0.024615442 -0.039594177 0.023340464 -0.021511326 0.019560557 0.048739538 0.026960868 -0.022853507
0.027598727 -0.0476301 0.0058279145 -0.031735994 0.0026325246 -0.050273184 0.0051381434 -0.028521203
-0.010034396 0.029653095 -0.007827113 -0.0011690906 -0.061234195 0.056124862 -0.006324897 -0.0015725904
0.01631307 0.04729283 -0.014475868 0.01783732 -0.025477944 0.005498514 -0.0103701595 0.018903468
0.035923682 0.07782369 -0.004869024 -0.01759896 0.029551132 -0.021280672 -0.008682229 -0.017862622
-0.030092293 0.013866642 0.0036154157 -0.0043052654 -0.02006342 -0.064533316 0.0011914818 -0.002821648
-0.0130217755 0.025515473 0.0052886824 -0.011140792 -0.024605006 -0.04628407 0.0011285248 -0.00991759
-0.030319335 0.027378166 0.0042924173 -0.0068537556 0.018933319 0.13595141 0.0011862095 -0.004625975
-0.033686522 -0.038854245 -0.0012395338 -0.0026274181 -0.051203143 0.063388534 0.0001495444 0.00046645396
-0.0002540912 -0.010858406 -0.000120030665 -0.0003319575 -0.02235053 0.010785969 -0.0024704654 -0.0032780098
0.024485718 0.024479618 -0.0016695285 0.0018427859 0.06356459 -0.04662491 -0.0009129085 -0.000121239
0.02678639 0.045888793 0.034313347 -0.003139699 0.011367622 0.013552937 0.03258161 -0.0029011972
0.023459567 0.035579383 0.008446766 -0.016774725 0.033115607 0.018390914 0.0108382255 -0.013907873
0.021289008 0.0280027 -0.017563496 -0.054906737 0.008434121 0.006097512 -0.017642256 -0.055228736
-0.007930338 0.01390365 -0.023184964 -0.005389997 -0.038491037 -0.019979458 -0.023036184 -0.0041552256
-0.0014330844 0.030456502 0.01727343 0.036907166 -0.021235809 -0.011391985 0.017474081 0.039328173
-0.002517709 0.043024708 0.012045867 0.039093465 0.00046993876 -0.05735376 0.014953353 0.0367127
0.004534514 0.08590358 -0.00045071624 -0.010293052 -0.005789553 -0.020643504 -0.0023633922 -0.010790583
0.013618491 0.08416894 0.024543114 0.009935368 -0.015456559 -0.034504406 0.019820418 0.007995198
0.021410689 0.08584451 0.006045036 -0.017785506 -0.014819259 -0.08305352 0.0062441975 -0.015751384
0.009011211 -0.023965431 -0.0012228093 0.011945753 -0.059978068 -0.026311979 0.0008988991 0.013319998
0.01742293 -0.0041564303 0.0020197064 -0.0020418067 -0.054179214 -0.001171982 -0.003400584 -0.0027389769
0.022265466 0.011643925 -0.00028691953 0.040104516 -0.037464727 0.073265366 -0.00019887969 0.042491622
0.0006165658 0.0012109787 0.0029701907 0.0019964683 -0.002035081 -0.00028664223 -0.00060193636 0.0009175227
0.0019772672 -0.0006847719 -0.0007964398 -0.002188341 0.002790756 -0.0011325363 0.0015341593 0.0012312657
0.0009301491 -0.0014496035 -0.0006337741 0.0009809504 -0.00046156207 -0.001691975 -0.0024288394 0.0020572077
0.06454034 0.001561975 0.00052863185 -0.0013298033 -0.001539682 -0.0031553588 0.0007899466 -0.0029775968
0.050452437 -0.004190898 -0.007286693 -0.016593479 0.014110224 -0.014108683 -0.010063599 -0.015869755
0.07323953 -0.005611061 0.0072191022 0.01482506 0.017307676 -0.07294214 0.007865433 0.0094650285
0.0040612617 -0.014829765 0.0018036811 0.006163272 -0.18441436 0.05426331 -0.0024484543 0.0070949746
0.018483207 0.012294592 0.002975617 0.0017612122 -0.007467953 0.01136686 0.002386244 -0.0011690118
00000000: 5431 773c 48d5 d9bc 8ec6 87bb 02ae 8bbc
00000010: af99 983c 3294 303d 3ee5 efba cb03 b5bc
00000020: 53a6 c93c 812d 22bd 8034 bf3c 8538 b0bc
00000030: 763d a03c 1ca3 473d 0add dc3c 4737 bbbc
00000040: ba16 e23c c817 43bd 17f8 be3b 9afd 01bd
00000050: 6f86 2c3b 41eb 4dbd df5d a83b 4ca5 e9bc
00000060: 4f67 24bc 0ceb f23c 4b3d 00bc 2c3c 99ba
00000070: b5d0 7abd 2fe3 653d 1541 cfbb 611f ceba
00000080: fda2 853c 20b6 413d 312c 6dbc 921f 923c
00000090: 1fb7 d0bc e12c b43b 9ae7 29bc 72db 9a3c
000000a0: b624 133d 0762 9f3d 558c 9fbb b22b 90bc
000000b0: 3715 f23c ce54 aebc e83f 0ebc a254 92bc
000000c0: 1d84 f6bc e930 633c 9cf0 6c3b 2f13 8dbb
000000d0: 0b5c a4bc 0b2a 84bd 7f2b 9c3a 66eb 38bb
000000e0: 4959 55bc d305 d13c af4c ad3b de87 36bc
000000f0: 7090 c9bc 5d94 3dbd 02eb 933a 637d 22bc
00000100: 4160 f8bc 2d48 e03c 68a7 8c3b 7895 e0bb
00000110: 0c1a 9b3c d936 0b3e 967a 9b3a 7e95 97bb
00000120: e1fa 09bd a125 1fbd da77 a2ba c330 2cbb
00000130: 63ba 51bd d9d1 813d 05cf 1c39 648e f439
00000140: 8b37 85b9 75e7 31bc f9b8 fbb8 950a aeb9
00000150: 7518 b7bc a2b7 303c 88e7 21bb e1d3 56bb
00000160: 4696 c83c 7b89 c83c 15d4 daba a289 f13a
00000170: 272e 823d c3f9 3ebd 4150 6fba b141 feb8
00000180: 226f db3c e3f5 3b3d 278c 0c3d 69c3 4dbb
00000190: 433f 3a3c 230d 5e3c 4b74 053d 0322 3ebb
000001a0: 472e c03c b0bb 113d 4e64 0a3c 266b 89bc
000001b0: 3ba4 073d 8ba8 963c d092 313c d9dd 63bc
000001c0: 4966 ae3c eb65 e53c 52e1 8fbc e3e5 60bd
000001d0: 442f 0a3c a3cd c73b 7e86 90bc 8737 62bd
000001e0: 40ee 01bc 23cc 633c 65ee bdbc 929e b0bb
000001f0: c7a8 1dbd f6ab a3bc 61b6 bcbc 8f28 88bb
00000200: 55d6 bbba ea7f f93c 0281 8d3c f82b 173d
00000210: b8f6 adbc 73a5 3abc ce25 8f3c 9416 213d
00000220: 2600 25bb ad3a 303d 075c 453c 7820 203d
00000230: 1d62 f639 c7eb 6abd e9fe 743c 0e60 163d
00000240: 4396 943b 37ee af3d 1c4e ecb9 30a4 28bc
00000250: 4ab6 bdbb 911c a9bc 24e3 1abb fcca 30bc
00000260: 1720 5f3c c460 ac3d a40e c93c f4c7 223c
00000270: 823d 7dbc 7e54 0dbd 6e5e a23c 4afe 023c
00000280: 7865 af3c 3fcf af3d 7015 c63b e9b2 91bc
00000290: 7acc 72bc f717 aabd 209c cc3b 0c09 81bc
000002a0: c2a3 133c 2753 c4bc ac46 a0ba 1fb8 433c
000002b0: 90ab 75bd 388c d7bc 19a4 6b3a 1f3c 5a3c
000002c0: 88ba 8e3c aa32 88bb 0d5d 043b d5cf 05bb
000002d0: 06eb 5dbd 319d 99ba 55dc 5ebb 6880 33bb
000002e0: 1166 b63c 29c6 3e3c b06d 96b9 a244 243d
000002f0: 9d74 19bd 270c 963d 5c8a 50b9 b20b 2e3d
00000300: 08a1 213a b4b9 9e3a 88a7 423b 2ed7 023b
00000310: fe5e 05bb 7848 96b9 44cb 1dba e885 703a
00000320: 0a95 013b 4482 33ba 2cc8 50ba 456a 0fbb
00000330: 1ee5 363b 9d71 94ba d815 c93a 6c62 a13a
00000340: 40d5 733a 9f00 beba dc23 26ba 3c93 803a
00000350: d0fd f1b9 43c5 ddba 2a2d 1fbb 38d2 063b
00000360: ba2d 843d 2fbb cc3a e293 0a3a cb4c aeba
00000370: 28cf c9ba 23ca 4ebb 6b14 4f3a c923 43bb
00000380: 37a7 4e3d cd53 89bb 36c5 eebb 0cef 87bc
00000390: 922e 673c 1b28 67bc cbe1 24bc 4a01 82bc
000003a0: 9bfe 953d fedc b7bb 388e ec3b cfe4 723c
000003b0: d4c8 8d3c b062 95bd 04de 003c 3513 1b3c
000003c0: 5514 853b 8bf8 72bc 7f69 ec3a 46f5 c93b
000003d0: 1ed7 3cbe 3443 5e3d 3f76 20bb f67c e83b
000003e0: 186a 973c 426f 493c 9202 433b 7ad8 e63a
000003f0: bbb5 f4bb 113c 3a3c 8862 1c3b 8739 99ba

fc1.bias f4 [256]
-0.122067876 0.10001537 0.1157436 0.039034847 -0.0004470068 -0.19350636 -0.22414608 -0.08569384
-0.19747588 -0.15429142 0.0897121 -0.04110272 0.06627939 -0.16758838 -0.008117596 0.23500994
-0.07359649 -0.021072365 -0.12748131 -0.15942416 0.039826557 -0.18567614 0.008467172 -0.16356163
-0.042480644 -0.20113635 0.09700262 0.022638012 -0.23308569 -0.08627439 -0.11142297 -0.06874109
-0.12602279 -0.046831425 -0.16194087 0.04780813 -0.17623891 0.10804308 -0.106605455 0.023614222
-0.15009536 -0.15056114 -0.1286418 -0.15466246 -0.06612924 -0.12313311 -0.13115183 -0.22778885
0.15617555 0.028971639 -0.14625713 0.13196503 -0.13159433 -0.2142113 -0.015275784 -0.11841436
0.12406336 -0.08404036 -0.22862041 0.15975508 -0.011581817 0.062476378 -0.051077805 -0.16862251
0.069803074 -0.0065224287 -0.17945406 0.0825786 -0.19114503 -0.13213137 -0.06526225 -0.19132894
-0.18566175 -0.13758896 -0.041387964 0.06310339 -0.03447605 0.1725857 -0.019816263 -0.017221976
-0.050640155 -0.09878258 -0.2139715 -0.19016956 0.007816271 -0.09631526 -0.11551755 0.07775233
-0.09293986 0.14542715 -0.008801881 -0.061233398 -0.09944598 0.20448741 -0.17626075 -0.19056575
0.11576232 -0.14475696 0.25482377 0.027429067 0.11432215 -0.022997666 0.020744124 0.026735576
-0.1396667 0.12877269 0.10707876 -0.02400476 0.031843126 -0.08320626 -0.10394218 -0.20292908
-0.13275853 -0.19727851 -0.08864453 0.19782314 0.1709312 -0.1960913 -0.17307982 0.15038647
-0.10104918 -0.029567461 0.112918206 0.11406514 0.037873764 0.04583173 -0.00017881469 -0.021973891
0.096508615 -0.19360755 -0.1976029 0.09277601 -0.22946744 0.009209745 0.11764827 0.09957691
-0.055282574 0.021905165 0.06341672 0.1221067 -0.023133993 -0.17640309 0.07788853 -0.060877196
0.14701049 -0.27723652 -0.06985943 -0.13828807 -0.023600165 0.12125113 0.0017051818 0.22755198
0.17844507 -0.14544554 0.10726146 0.07297646 0.1547412 0.0018873425 -0.015833346 0.13525674
-0.16568808 0.086865425 -0.043803692 -0.07042862 -0.110302486 0.09436858 -0.06362669 0.026866743
0.0119837355 0.17817444 0.040870115 -0.20348409 -0.17227352 -0.19610043 -0.20011808 -0.2385488
-0.03971438 0.10253189 -0.15539773 0.08487197 -0.09313626 0.19081248 0.0882751 0.12693755
0.15048169 -0.15897028 -0.18358327 -0.09632952 0.021531839 0.10066639 0.13775972 0.038265977
-0.0875297 -0.16630834 0.20703605 -0.17867036 -0.14249629 0.055464424 0.1539715 -0.020921465
-0.0119973365 -0.008112982 0.0011086399 -0.1278121 0.14484818 0.120254375 -0.08381944 0.1194301
0.07564252 -0.19584751 0.06499904 -0.07158595 0.15385038 0.008058241 -0.069511294 -0.1621478
0.13062392 0.15028888 -0.006004894 -0.0039999043 -0.14132911 0.03561568 0.22159469 -0.09865128
-0.0068844454 -0.19598265 -0.13847029 -0.14976363 -0.10174375 -0.18176489 0.19118097 0.10106676
-0.11213822 -0.16067004 0.052092083 0.09135185 -0.09711152 -0.004057448 -0.0031817297 0.12493539
-0.12529396 -0.17327634 0.12233286 -0.0028539344 -0.1026511 0.13034427 -0.10715641 -0.22771941
-0.1051809 -0.0656247 -0.11151205 -0.17100674 0.11060648 0.14655359 -0.20608169 0.042693805
00000000: b9fe f9bd dcd4 cc3d fb0a ed3d 01e3 1f3d
00000010: 3d5c eab9 8826 46be 8d86 65be 4180 afbd
00000020: 1e37 4abe 92fe 1dbe faba b73d 535b 28bd
00000030: 7dbd 873d 4a9c 2bbe aaff 04bc 72a6 703e
00000040: c2b9 96bd f49f acbc 768a 02be 1640 23be
00000050: 2c21 233d e321 3ebe e5b9 0a3c b37c 27be
00000060: 2f00 2ebd b0f6 4dbe 4fa9 c63d 5a73 b93c
00000070: 04ae 6ebe a1b0 b0bd ba31 e4bd 21c8 8cbd
00000080: 1e0c 01be 4fd2 3fbd d4d3 25be 75d2 433d
00000090: f977 34be b145 dd3d f653 dabd 9d72 c13c
000000a0: 99b2 19be b32c 1abe adba 03be d65f 1ebe
000000b0: c46e 87bd 362d fcbd aa4c 06be 7b41 69be
000000c0: 7cec 1f3e ee55 ed3c 6ec4 15be d721 073e
000000d0: aac0 06be 355a 5bbe 4847 7abc 3a83 f2bd
000000e0: ee14 fe3d 5a1d acbd 781b 6abe d696 233e
000000f0: a9c1 3dbc 3be7 7f3d f636 51bd 61ab 2cbe
00000100: eaf4 8e3d 19ba d5bb cec2 37be f81e a93d
00000110: 86bb 43be 724d 07be 37a8 85bd bceb 43be
00000120: 1d1e 3ebe 1fe4 0cbe 6d86 29bd 5a3c 813d
00000130: c236 0dbd 4eba 303e b755 a2bc 1a15 8dbc
00000140: 0d6c 4fbd 854e cabd 581b 5bbe cfbb 42be
00000150: d10f 003c ef40 c5bd 7794 ecbd 9d3c 9f3d
00000160: 4157 bebd dbea 143e c435 10bc dfcf 7abd
00000170: 55aa cbbd 2665 513e b37d 34be ab23 43be
00000180: cc14 ed3d 2b3b 14be 4378 823e ecb2 e03c
00000190: bb21 ea3d 9a65 bcbc 95ef a93c 9104 db3c
000001a0: ca04 0fbe fddc 033e 1c4c db3d a1a5 c4bc
000001b0: f06d 023d 0b68 aabd a3df d4bd a4cc 4fbe
000001c0: daf1 07be 6103 4abe 438b b5bd 2692 4a3e
000001d0: 9708 2f3e 28cc 48be d63b 31be e9fe 193e
000001e0: dff2 cebd 7637 f2bc a941 e73d fc9a e93d
000001f0: 8521 1b3d 0dba 3b3d 3480 3bb9 9702 b4bc
00000200: 4fa6 c53d 0f41 46be 6a58 4abe 5901 be3d
00000210: 83f9 6abe 78e4 163c 94f1 f03d fbee cb3d
00000220: fb6f 62bd 7672 b33c a0e0 813d 1413 fa3d
00000230: 8083 bdbc 03a3 34be 0684 9f3d 5e5a 79bd
00000240: eb89 163e f2f1 8dbe 7612 8fbd 639b 0dbe
00000250: 2255 c1bc 8352 f83d 6880 df3a 6303 693e
00000260: 4eba 363e adef 14be e5ab db3d af74 953d
00000270: 7a74 1e3e b560 f73a efb4 81bc be80 0a3e
00000280: 23aa 29be 80e6 b13d 806b 33bd e13c 90bd
00000290: 45e6 e1bd 5044 c13d b64e 82bd a517 dc3c
000002a0: 6e57 443c 5c73 363e 6c67 273d 225e 50be
000002b0: 7868 30be 8dce 48be c1eb 4cbe 2346 74be
000002c0: 8cab 22bd 3dfc d13d 9520 1fbe 5bd1 ad3d
000002d0: 39be bebd 5964 433e 93c9 b43d ebfb 013e
000002e0: df17 1a3e 1bc9 22be 41fd 3bbe 6948 c5bd
000002f0: 8a63 b03c 2e2a ce3d e210 0d3e c9bc 1c3d
00000300: c542 b3bd bc4c 2abe 4201 543e 5df5 36be
00000310: 8cea 11be aa2e 633d b4aa 1d3e 7e63 abbc
00000320: 7a90 44bc 50ec 04bc c84f 913a 2de1 02be
00000330: 1553 143e ed47 f63d 87a9 abbd c597 f43d
00000340: 77ea 9a3d 408c 48be 371e 853d a89b 92bd
00000350: f48a 1d3e b606 043c f05b 8ebd 130a 26be
00000360: 47c2 053e 54e5 193e b4c4 c4bb a111 83bb
00000370: 94b8 10be bfe1 113d b8e9 623e af09 cabd
00000380: ea96 e1bb adaf 48be 28cb 0dbe a35b 19be
00000390: 075f d0bd 9320 3abe f2c4 433e 17fc ce3d
000003a0: b9a8 e5bd b086 24be 825e 553d ae16 bb3d
000003b0: 68e2 c6bd 57f4 84bb 9184 50bb 20de ff3d
000003c0: 0f4d 00be 5a6f 31be a789 fa3d 1309 3bbb
000003d0: bd3a d2bd f878 053e d274 dbbd 472f 69be
000003e0: 1569 d7bd 3e66 86bd 6e60 e4bd 641c 2fbe
000003f0: a685 e23d 2512 163e 1407 53be b3df 2e3d

fc2.weight f4 [128, 258]
0.041247573 0.005257368 -0.010026487 -0.12524323 -0.03937035 0.030003166 0.00068757497 0.0030827823
-0.06224833 -0.0020089622 -0.057415295 -0.052025247 0.009369808 -0.06422004 0.0058640204 -0.0063270004
0.026521424 0.02307795 -0.059340212 -0.0230363 0.009754425 -0.058379106 0.002083974 -0.06653552
0.0011277354 -0.058461744 -0.0048380783 -0.035502777 -0.05366416 0.014761219 0.0070890286 -0.0041941605
-0.0012645795 -0.015364792 0.004264826 -0.058692135 0.058054656 0.008361944 -0.02065714 0.030635308
-0.058882695 0.044142347 -0.016236963 -0.026504913 0.019866984 0.0032684535 0.010346336 -0.023115795
-0.054054037 0.017479882 -0.02570923 0.009458324 -0.00166246 0.03684496 0.015358242 -0.059716303
-0.11657057 -0.017607715 0.0059268833 -0.0116867 0.007478078 0.018090624 -0.034801256 -0.051589534
0.019198244 -0.021369513 -0.009200874 0.0144114895 -0.05967848 0.009096248 -0.044770215 0.059393786
-0.052755497 0.021806078 -0.023113752 0.0013226633 0.021644246 -0.036756475 0.019058937 0.007679813
0.014958971 -0.06602755 0.012147786 -0.065505624 0.045208964 0.043416765 -0.017580383 -0.039607648
0.075373985 0.029474827 0.019330576 -0.006995549 0.056189753 0.019841194 0.059947707 0.061086893
0.0168391 0.060083438 -5.687039e-05 -0.0083677815 -0.011127125 -0.039075177 -0.031225683 0.0041776965
0.039816137 0.033429977 -0.009617946 0.028199853 0.009495255 -0.026761053 -0.01532148 -0.0026675619
0.027126726 0.059196055 0.0072990493 0.025790542 0.010893256 0.0618215 -0.061185643 -0.06862741
0.014520412 0.0147303175 0.014258627 0.0050347936 -0.01312862 -0.013088545 0.030387098 0.02219142
0.009285195 0.060030583 0.06380301 -0.007590239 0.00062370364 0.014058323 0.01211883 0.014637139
-0.06572426 -0.013201701 -0.020908386 0.022976259 -0.01829667 0.02387616 0.013568035 -0.059205275
0.004447562 0.0020797143 -0.09963767 -0.03202061 0.043934435 -0.031818192 -0.019219305 -0.0012452604
-0.004774479 0.058000397 -0.0787323 0.0016294757 -0.00072401203 -0.016569613 -0.008540647 0.026902096
0.058795713 -0.0008016015 0.04017297 -0.018834576 -0.013408781 -0.010937767 0.016608546 -0.021788234
0.060005333 0.0074314126 -0.0071634287 -0.06617579 0.056656744 -0.0557864 -0.057856858 0.011229778
-0.012377419 0.0024592895 0.046791095 -0.01877989 0.059848182 -0.045956917 0.02456194 0.0062722554
0.05816649 0.005099027 0.064614676 0.020562097 0.0051320666 0.0011930679 0.0042149727 -0.00058221165
-0.0033585671 -0.005470383 0.029180435 0.058400236 -0.05895732 -0.024711521 0.0060824524 0.011072535
0.03129146 -0.00031670078 -0.01509901 -0.011426524 0.0018340934 -0.010513443 0.05924915 0.0057672085
0.020130854 -0.049514465 0.005220311 -0.031154264 -0.030851677 0.03845028 -0.019932276 -0.06476963
-0.06673221 0.01396964 -0.07369624 -0.00017159793 -0.028494798 0.033158205 -0.004629173 -0.028208407
-0.029292509 0.060195316 -0.0014704401 0.0007686982 -0.022173906 -0.016758561 -0.004536368 -0.006518201
-0.042463105 0.0010798498 -0.045452937 -0.041693524 0.07007831 -0.00961317 -0.012553342 0.005959063
-0.02076977 0.0018214098 0.007796763 -0.104367636 0.041287653 -0.011267245 0.0123841185 -0.009679393
0.0046954188 -0.0015185168 0.008368593 -0.062100455 0.010105987 0.046659123 -0.0068414547 0.011927447
00000000: 37f3 283d 0046 ac3b 2246 24bc c33f 00be
00000010: ce42 21bd 33c9 f53c 603e 343a 8108 4a3b
00000020: 1bf8 7ebd cba8 03bb 4d2c 6bbd 6d18 55bd
00000030: d383 193c cc85 83bd f826 c03b ba52 cfbb
00000040: 7543 d93c f80d bd3c b90e 73bd 9fb6 bcbc
00000050: 06d1 1f3c ee1e 6fbd 4893 083b c643 88bd
00000060: 85d0 933a 9575 6fbd be88 9ebb 5c6b 11bd
00000070: f3ce 5bbd 0ad9 713c 154b e83b 2b6f 89bb
00000080: 3fc0 a5ba 9cbc 7bbc f4bf 8b3b 2a67 70bd
00000090: b8ca 6d3d 8900 093c 2a39 a9bc e6f6 fa3c
000000a0: fb2e 71bd 9bce 343d 6103 85bc d520 d9bc
000000b0: 16c0 a23c 8d33 563b ae83 293c 565d bdbc
000000c0: c467 5dbd f831 8f3c 2a9c d2bc 16f7 1a3c
000000d0: e7e6 d9ba beea 163d 23a1 7b3c 1599 74bd
000000e0: 8dbc eebd 0e3e 90bc 4d36 c23b 9379 3fbc
000000f0: aa0a f53b ca32 943c c38b 0ebd 8c4f 53bd
00000100: a345 9d3c 1e0f afbc 43bf 16bc 2b1e 6c3c
00000110: 6c71 74bd 6e08 153c f960 37bd e646 733d
00000120: 2616 58bd a9a2 b23c 0d59 bdbc 375d ad3a
00000130: 464f b13c f58d 16bd 7d21 9c3c f1a6 fb3b
00000140: 7916 753c 7439 87bd 8207 473c d027 86bd
00000150: 092d 393d c7d5 313d bc04 90bc a13b 22bd
00000160: ad5d 9a3d 3175 f13c 285b 9e3c eb3a e5bb
00000170: 3a27 663d 008a a23c ba8b 753d 4036 7a3d
00000180: 27f2 893c 0d1a 763d 1e88 6eb8 0519 09bc
00000190: 8b4e 36bc 4b0d 20bd 01cd ffbc 0fe5 883b
000001a0: 3f16 233d dfed 083d 9794 1dbc 6103 e73c
000001b0: fc91 1b3c ff39 dbbc f206 7bbc 43d2 2ebb
000001c0: de38 de3c 9077 723d dd2c ef3b b046 d33c
000001d0: a179 323c 8b38 7d3d cc9d 7abd 878c 8cbd
000001e0: 06e7 6d3c 6e57 713c 049d 693c e9fa a43b
000001f0: 6c19 57bc 5671 56bc 5dee f83c c8ca b53c
00000200: ee20 183c a1e2 753d 27ab 823d 8ab7 f8bb
00000210: 0b80 233a e154 663c 0f8e 463c 9cd0 6f3c
00000220: 719a 86bd f34b 58bc 1048 abbc b538 bc3c
00000230: e6e2 95bc f097 c33c 774c 5e3c 3b81 72bd
00000240: dbbc 913b d14b 083b d60e ccbd 0b28 03bd
00000250: 98f4 333d cb53 02bd ce71 9dbc 0138 a3ba
00000260: 3c73 9cbb d391 6d3d 663e a1bd 2294 d53a
00000270: a0cb 3dba ffbc 87bc 12ee 0bbc c961 dc3c
00000280: c6d3 703d 9122 52ba 6a8c 243d f84a 9abc
00000290: 81b0 5bbc 5234 33bc a50e 883c 3d7d b2bc
000002a0: 27c8 753d 3583 f33b 32bb eabb 2c87 87bd
000002b0: e710 683d 4880 64bd 50fb 6cbd 1afd 373c
000002c0: a8ca 4abc 082c 213b 05a8 3f3d 49d8 99bc
000002d0: 5e23 753d 523d 3cbd 1f36 c93c 7e87 cd3b
000002e0: fc3f 6e3d bd15 a73b b354 843d d871 a83c
000002f0: e52a a83b b760 9c3a c11d 8a3b 909f 18ba
00000300: 681b 5cbb e640 b3bb cf0b ef3c 1635 6f3d
00000310: 3b7d 71bd d16f cabc 4f4f c73b 9469 353c
00000320: 792b 003d dc0a a6b9 d761 77bc 5136 3bbc
00000330: f665 f03a 9340 2cbc 3daf 723d dafa bc3b
00000340: 76e9 a43c aecf 4abd 250f ab3b 3a37 ffbc
00000350: a8bc fcbc 0a7e 1d3d 0349 a3bc f1a5 84bd
00000360: e6aa 88bd ebe0 643c 0eee 96bd f8ee 33b9
00000370: ec6d e9bc e6d0 073d 51b0 97bb 5115 e7bc
00000380: d8f6 efbc 5d8f 763d c8bb c0ba 7782 493a
00000390: 0da6 b5bc 4049 89bc d0a5 94bb a296 d5bb
000003a0: cbed 2dbd bf89 8d3a dc2c 3abd d4c6 2abd
000003b0: 3885 8f3d 8f80 1dbc 88ac 4dbc 3e44 c33b
000003c0: 5d25 aabc 5fbc ee3a fd7b ff3b b3be d5bd
000003d0: 3e1d 293d 409a 38bc c2e6 4a3c 5196 1ebc
000003e0: 07dc 993b f808 c7ba 6c1c 093c 0c5d 7ebd
000003f0: 9593 253c a31d 3f3d 482e e0bb 576b 433c
